predator_ppo_agent.pth (torch, 892356 bytes, 7 tensors)

shared_layers.0.weight f4 [128, 1600]
0.02697937 -0.0009538175 0.0011445164 -0.0064187627 -0.0033815322 -0.016823728 -0.037456173 -0.0015869626
-0.007036115 -0.03854056 0.013151261 -0.014717569 -0.016073095 0.016394932 -0.041225787 -0.012766421
-0.026821677 -0.04656069 -0.027142001 -0.016058512 0.0033140653 -0.011577976 -0.021928988 -0.013871964
0.004919915 0.0057687717 0.024296941 -0.02239472 -0.0032158778 -0.015880281 -0.013170283 -0.0037230484
0.018418504 -0.0043689483 -0.013568136 0.0056187157 -0.034443844 -0.0023907633 -0.009767982 -0.01274033
0.045806114 -0.012857505 0.029437754 0.027094655 -0.023164315 0.010070999 -0.006170647 -0.036464714
0.021684945 -0.027577888 -0.019503519 -0.015261821 -0.011019927 0.008450299 0.017701132 -0.030488173
-0.036587767 0.014193124 -0.023078507 0.017753437 -0.016816813 -0.008681204 0.028507197 0.0072268653
0.00020520629 -0.017759219 -0.02661304 -0.025135653 0.0293011 -0.023517968 -0.017478593 0.0019706667
0.014457559 -0.009742433 -0.02006523 0.01653772 -0.025147928 0.014067557 0.02916467 -0.01753005
0.02612987 0.018790862 0.0046877763 0.020678107 0.014957425 0.0010725973 -0.0141528845 -0.0087425755
-0.005233076 -0.040508665 -0.013109696 -0.0014743212 0.019075092 0.010489495 0.0430046 0.008045737
-0.0030616696 0.04145008 0.017202092 0.020021806 -0.008588264 0.025657415 0.020835573 0.015334092
0.011401621 -0.0021239643 -0.03519306 0.009025709 -0.023479575 0.0002505732 -0.043536335 0.0011005914
0.027827991 0.0142729925 0.014288322 -0.006909622 0.022699462 0.038445175 0.022854736 0.014136663
0.01767546 0.021696923 -0.019080615 0.0021312882 -0.017438514 0.00868534 -0.018878559 -0.04621387
-0.029857144 -0.028896045 -0.019309811 0.038856976 -0.017751912 0.029746536 0.039417792 0.027309492
0.0041937428 0.038275227 -0.010968651 0.07522015 -0.0113065615 -0.0025916013 0.019635504 -0.030148974
0.013633362 0.010070584 -0.015829843 0.0130006345 0.009235838 -0.01159318 0.0035890813 0.0015533502
-0.017756457 -0.0030947877 0.026512299 0.022726588 0.0479599 0.012195096 0.023731455 0.02562541
0.007030143 -0.039281927 0.0011957908 -0.030490847 0.0023646741 -0.029593844 -0.0029431873 -0.015896183
0.0204263 -0.009616526 -0.0032410317 0.028759364 0.019091617 0.00440168 0.032919034 0.06029924
0.033865146 0.049636573 0.019632543 0.07453855 -0.04277882 -0.0077473065 0.013057762 0.016228914
-0.03705321 0.017368713 -0.022659637 0.0028669084 0.006557884 -0.010964158 -0.040336076 0.0018649421
0.025823375 0.044855006 0.03268655 0.038443718 0.0028552006 0.039812814 0.01677753 0.03259957
-0.010519888 0.013081504 0.019425811 0.007258892 -0.03438224 -0.012980254 -0.03267556 -0.004034582
-0.019865844 0.02000236 -0.007870258 -0.007918523 0.0076055187 0.05348076 0.014315507 0.007859387
0.049397152 0.051392864 0.0073707695 0.0064437524 -0.01906372 0.023002317 -0.03009074 -0.042496137
-0.018267592 -0.022657925 0.011348493 0.0008833037 -0.013258731 -0.02685014 0.037132554 0.021457497
0.008190995 0.013606262 0.02866137 0.031345803 0.03723609 0.019203901 0.035905235 0.021458382
-0.022491027 -0.03602225 -0.027433518 -0.02753973 -0.008408514 -0.0248715 -0.011425598 0.01765765
0.019739728 0.008334313 0.033482842 0.023853786 0.014431937 0.012779809 0.023097493 0.047823522
00000000: d703 dd3c 9c09 7aba 9903 963a 7c54 d2bb
00000010: b29c 5dbb ead1 89bc a56b 19bd a101 d0ba
00000020: 368f e6bb b5dc 1dbd 6378 573c f521 71bc
00000030: b9ab 83bc aa4e 863c 5fdc 28bd 402a 51bc
00000040: 22b9 dbbc 6cb6 3ebd e758 debc 248d 83bc
00000050: ca30 593b 8db1 3dbc 6ca4 b3bc 3c47 63bc
00000060: 3d37 a13b f707 bd3b 610a c73c 2275 b7bc
00000070: 7ac1 52bb 5d17 82bc 2cc8 57bc 63fe 73bb
00000080: 67e2 963c 6529 8fbb e34c 5ebc 341d b83b
00000090: fd14 0dbd 5aae 1cbb e309 20bc d1bc 50bc
000000a0: 319f 3b3d 49a8 52bc 7227 f13c 9cf5 dd3c
000000b0: 17c3 bdbc d500 253c 2433 cabb 065c 15bd
000000c0: a0a4 b13c 06eb e1bc d8c5 9fbc b80c 7abc
000000d0: ed8c 34bc 1f73 0a3c f701 913c 55c2 f9bc
000000e0: 0edd 15bd 478a 683c 230f bdbc a86f 913c
000000f0: 6ac3 89bc 9c3b 0ebc ed87 e93c 57cf ec3b
00000100: a52c 5739 c87b 91bc 9703 dabc 49e9 cdbc
00000110: dc08 f03c c1a8 c0bc 442f 8fbc 4d26 013b
00000120: 66df 6c3c ba9e 1fbc d65f a4bc 1d7a 873c
00000130: 0703 cebc 9c7b 663c bfea ee3c 2e9b 8fbc
00000140: 4f0e d63c 4bef 993c eb9b 993b 2265 a93c
00000150: fd0f 753c 6596 8c3a 80e1 67bc 053d 0fbc
00000160: 397a abbb 6aec 25bd 0dca 56bc 033e c1ba
00000170: 5e43 9c3c 21dc 2b3c 9725 303d 44d2 033c
00000180: 4ba6 48bb 8fc7 293d 67eb 8c3c c504 a43c
00000190: cab5 0cbc 802f d23c 5daf aa3c d83b 7b3c
000001a0: ddcd 3a3c 3532 0bbb 9926 10bd 91e0 133c
000001b0: 3d58 c0bc 5e5f 8339 2853 32bd b841 903a
000001c0: 87f7 e33c 45d9 693c 9119 6a3c 1c6a e2bb
000001d0: 39f4 b93c b078 1d3d db39 bb3c 769d 673c
000001e0: 20cc 903c bfbd b13c f34e 9cbc 15ad 0b3b
000001f0: 37db 8ebc f54c 0e3c 35a7 9abc c14a 3dbd
00000200: f896 f4bc 66b7 ecbc 9c2f 9ebc 7e28 1f3d
00000210: 756c 91bc 02af f33c 8d74 213d 28b8 df3c
00000220: aa6b 893b 7cc6 1c3d dbb5 33bc 060d 9a3d
00000230: 283f 39bc dbd7 29bb a3da a03c fbfa f6bc
00000240: 775e 5f3c 17ff 243c 96ad 81bc 9d00 553c
00000250: ea51 173c 52f1 3dbc cb36 6b3b c999 cb3a
00000260: fd75 91bc ecd1 4abb 5230 d93c 1c2d ba3c
00000270: 9a71 443d f1cd 473c 7868 c23c 61ec d13c
00000280: 1d5d e63b 16e6 20bd 15bc 9c3a f1c7 f9bc
00000290: a6f8 1a3b ca6e f2bc 7de2 40bb b638 82bc
000002a0: 0e55 a73c a28e 1dbc 7d67 54bb c298 eb3c
000002b0: 0666 9c3c f83b 903b 1cd6 063d 56fc 763d
000002c0: 2eb6 0a3d b84f 4b3d 6dd4 a03c aba7 983d
000002d0: d838 2fbd 1edd fdbb 39f0 553c 80f2 843c
000002e0: 1bc5 17bd d548 8e3c b4a0 b9bc bee2 3b3b
000002f0: 85e3 d63b 03a3 33bc 7137 25bd 1371 f43a
00000300: 8b8b d33c e2b9 373d 55e2 053d 2977 1d3d
00000310: 511e 3b3b c312 233d 0871 893c 2087 053d
00000320: 9c5b 2cbc ce53 563c e122 9f3c 00dc ed3b
00000330: 64d4 0cbd 22ab 54bc cfd6 05bd 8734 84bb
00000340: b2bd a2bc fddb a33c 41f2 00bc b1bc 01bc
00000350: b737 f93b a40e 5b3d 978b 6a3c a9c4 003c
00000360: ab54 4a3d 5381 523d 7f86 f13b 1d26 d33b
00000370: 852b 9cbc 5b6f bc3c db80 f6bc 6e10 2ebd
00000380: eba5 95bc 1d9d b9bc 08ef 393c 828d 673a
00000390: 263b 59bc d3f4 dbbc 4e18 183d a2c7 af3c
000003a0: 8633 063c cdec 5e3c 40cb ea3c 7564 003d
000003b0: df84 183d 8051 9d3c 5e11 133d 7dc9 af3c
000003c0: 1a3f b8bc 118c 13bd 42bc e0bc 009b e1bc
000003d0: ddc3 09bc 51bf cbbc 6e32 3bbc c7a6 903c
000003e0: 36b5 a13c a48c 083c 4e25 093d 0469 c33c
000003f0: ee73 6c3c 6762 513c f436 bd3c 99e2 433d

shared_layers.0.bias f4 [128]
0.013479003 -0.008239263 -0.018748756 0.046668436 0.048845332 -0.010126312 0.0068446966 0.03948182
0.025149604 0.0069468166 0.05616245 0.006493254 -0.016536688 0.006691837 0.010269232 -0.00063294853
-0.0023237881 0.008839476 -0.02697117 0.042034715 0.008985289 -0.0039417925 -0.006326089 0.03552933
-0.0066605583 0.048886843 0.030619778 0.01658621 -0.0058061522 -0.002220398 0.03193366 0.014032874
0.02561333 0.0059874463 -0.0083107315 0.06010286 -0.0017241437 -0.011251603 -0.007101611 0.023713997
0.015284508 0.05313804 -0.0042515886 0.0041692834 -0.0044797338 0.076765545 0.009898382 0.04442616
0.032043736 0.020247756 0.028110893 -0.02964363 0.022307318 0.06571578 0.005168621 0.07443551
-0.024722945 -0.0032609277 0.029159281 0.00011292711 -0.020224754 0.021981366 0.026660183 -0.0026042492
0.0034455124 -0.024074942 0.008325431 -0.016301315 0.046387453 -0.030994974 -0.016451199 -0.008931301
-0.014381665 0.029127005 0.023433143 0.057970993 0.031571984 -0.003906157 0.0015120008 0.026687492
-0.016812066 0.015688708 0.02476341 0.01718911 0.0060348213 0.029993152 0.009639628 -0.018404476
0.030259453 0.003971367 0.016789366 -0.004190771 -0.005929484 0.03162003 0.022027977 -0.018998737
0.011917932 0.05986044 0.049371697 0.018408151 0.006873513 0.028766403 -0.0050408384 0.017094322
0.034727573 0.0062854216 0.05145816 -0.021883706 0.049943384 0.020533066 0.019102378 0.022277912
0.036106378 0.023475513 -0.001235771 0.028039593 -0.017899964 0.0092299 0.013443663 0.05640081
0.01197628 0.013524564 0.0052284063 0.0008378876 -0.023184009 0.015877832 -0.00296795 0.022182057
00000000: 09d7 5c3c f9fd 06bc fe96 99bc 6727 3f3d
00000010: 0b12 483d d5e8 25bc 7a49 e03b b0b7 213d
00000020: 8b06 ce3c 1fa2 e33b 990a 663d 5dc5 d43b
00000030: f377 87bc 3347 db3b 4840 283c 75ec 25ba
00000040: b24a 18bb 73d3 103c a5f2 dcbc 982c 2c3d
00000050: 0937 133c 272a 81bb 154b cfbb 3487 113d
00000060: d040 dabb 923d 483d 54d6 fa3c cedf 873c
00000070: 8941 bebb 1984 11bb dfcc 023d 24ea 653c
00000080: 0cd3 d13c 5732 c43b bc29 08bc 6b2e 763d
00000090: aafc e1ba a558 38bc a1b4 e8bb db43 c23c
000000a0: df6b 7a3c 46a7 593d e950 8bbb 7c9e 883b
000000b0: bbca 92bb 4137 9d3d d32c 223c 35f8 353d
000000c0: 4b40 033d 9fde a53c d148 e63c 33d7 f2bc
000000d0: d6bd b63c ff95 863d 895d a93b a571 983d
000000e0: c687 cabc 4ab5 55bb 72df ee3c 48d3 ec38
000000f0: 62ae a5bc 4412 b43c 7566 da3c 0dac 2abb
00000100: 1bce 613b d038 c5bc 6367 083c 568a 85bc
00000110: c500 3e3d 2ce9 fdbc aac4 86bc 9754 12bc
00000120: 13a1 6bbc c29b ee3c ddf6 bf3c fe72 6d3d
00000130: a051 013d 71fe 7fbb 542e c63a ba9f da3c
00000140: 75b9 89bc 9b85 803c a3dc ca3c 2dd0 8c3c
00000150: c0bf c53b 33b4 f53c 88ef 1d3c fcc4 96bc
00000160: ace2 f73c 3e22 823b da89 893c bc52 89bb
00000170: 1e4c c2bb 0184 013d 0474 b43c 3da3 9bbc
00000180: 6e43 433c 3930 753d fa39 4a3d b1cc 963c
00000190: 353b e13b 85a7 eb3c 9e2d a5bb 6409 8c3c
000001a0: 803e 0e3d f0f5 cd3b cbc5 523d 7545 b3bc
000001b0: 6f91 4c3d f634 a83c 977c 9c3c 2b80 b63c
000001c0: 48e4 133d b84f c03c 98f9 a1ba 4ab3 e53c
000001d0: f2a2 92bc 0239 173c cf42 5c3c 8904 673d
000001e0: 2938 443c 2296 5d3c 0d53 ab3b afa5 5b3a
000001f0: 64ec bdbc 3a12 823c f081 42bb 25b7 b53c

shared_layers.2.weight f4 [128, 128]
-0.017002815 0.04467506 0.04598384 0.07675972 0.08200798 0.024464387 -0.034078673 0.10619681
0.05860334 -0.070446916 -0.032394867 0.044283427 -0.038324527 0.08917695 -0.05582284 -0.10744553
0.05738654 -0.086350866 0.0759257 0.004092259 0.019070342 -0.094084755 0.03650649 0.03540435
-0.084055826 0.10617054 0.10607983 0.04585661 0.01606585 0.043616522 0.045728497 -0.031900793
0.038811464 -0.02350182 0.00519432 0.029184772 0.03119824 0.05576328 -0.07766357 -0.012595332
0.018021015 -0.0026619143 0.027049249 -0.06404333 0.05834117 -0.056559887 0.041350704 0.013615955
-0.038658943 0.1088062 0.09855143 -0.01826759 -0.04518429 0.052995738 0.08587141 0.024870658
-0.06400623 0.043482147 0.048299138 -0.03595642 -0.07461424 -0.07803109 0.069983415 0.01718711
0.038221426 -0.050585136 0.03841816 0.0025540988 0.01514929 -0.0063646287 -0.06378197 -0.06170636
0.016943464 0.08107981 -0.046046734 -0.044379264 0.1052249 -0.06294972 0.043264635 0.015812356
0.05230458 0.0147116305 0.03152265 0.028994702 0.0066724033 0.08210526 -0.023796951 0.028386557
0.0032294968 0.09477394 0.007129297 0.039974194 0.0062612505 -0.040524267 0.10414477 -0.08457221
-0.03478682 0.02426355 0.08506761 0.07136113 0.012985235 0.10045386 0.04612824 -0.0830828
-0.029270308 -0.047479454 0.10633368 -0.016848758 0.10357575 -0.016210413 -0.05132375 0.011244615
-0.025378188 0.03219544 0.041817825 -0.018358458 -0.051919017 0.046569146 0.0008925334 0.07301456
0.09525244 0.065595224 -0.040712312 -0.02773886 -0.02980166 -0.03441007 -0.06199154 -0.123725876
0.039926272 0.082093924 0.069811836 -0.07780068 0.01256778 0.011891474 0.0013410882 -0.08208469
-0.028424792 -0.0022456427 -0.10480641 0.08407972 -0.060875338 0.07206219 -0.074817136 -0.02366735
-0.071351685 0.06120128 0.002048447 0.031670325 0.066373564 0.08399656 0.03409239 -0.0035081005
0.05684813 -0.020403145 -0.04254314 -0.030767618 -0.042923212 0.046086125 -0.10299556 -0.03407153
-0.037206374 -0.029112304 0.023857513 -0.0191662 -0.05705934 -0.037390545 0.027214667 0.018639727
0.025911922 -0.08552699 0.06456146 -0.015565964 0.07490924 0.012810542 -0.0068274094 0.035942826
-0.07633189 -0.019244792 -0.08505016 0.09691035 0.036060378 -0.043313123 0.011737519 -0.043981213
0.047372576 0.07680313 -0.07503232 -0.0014957718 0.018673746 -0.08737006 -0.010684686 0.046244234
0.054412864 0.039555393 0.001535874 -0.057937797 -0.0765588 -0.017044801 -0.06886707 0.08966706
0.05534823 -0.008041936 0.054476965 0.023327675 -0.078905165 0.061671067 -0.12457496 -0.043252382
0.07844705 0.00885754 0.05628987 -0.065498695 -0.052554607 -0.098417245 0.032767773 0.08311783
0.041471384 0.043147784 0.08779026 0.028709557 0.02200608 0.050886355 -0.056739755 0.08097399
0.06854558 -0.08614693 0.020669661 0.016067255 -0.0840368 -0.0038774067 -0.023050942 0.03668235
-0.054403108 0.08082059 -0.031681187 -0.010804193 -0.021088256 -0.0151825985 -0.02722654 -0.036060117
0.007328429 -0.0628357 -0.034053467 0.009849311 -0.04902253 0.10523608 -0.08257445 -0.018639253
-0.0376025 -0.031050643 0.03641822 0.026880575 -0.025337273 0.05736596 0.026774885 -0.015994247
00000000: 7d49 8bbc 32fd 363d 8d59 3c3d 3334 9d3d
00000010: cdf3 a73d 8a69 c83c 1496 0bbd b77d d93d
00000020: 0e0a 703d 7946 90bd 7bb0 04bd 8a62 353d
00000030: 2efa 1cbd 68a2 b63d 7ea6 64bd 670c dcbd
00000040: 260e 6b3d b9d8 b0bd ef7e 9b3d 5b18 863b
00000050: 6839 9c3c 82af c0bd d487 153d 2704 113d
00000060: 7625 acbd f16f d93d 6240 d93d 24d4 3b3d
00000070: 889c 833c 3da7 323d ce4d 3b3d 68aa 02bd
00000080: c5f8 1e3d e486 c0bc 1d35 aa3b e714 ef3c
00000090: 7493 ff3c 0968 643d 140e 9fbd a75c 4ebc
000000a0: cfa0 933c 8373 2ebb 6396 dd3c 2629 83bd
000000b0: 27f7 6e3d 57ab 67bd 5b5f 293d 7415 5f3c
000000c0: d758 1ebd c9d5 de3d 55d5 c93d eaa5 95bc
000000d0: 2913 39bd 0f12 593d 5add af3d 8dbd cb3c
000000e0: b315 83bd 561a 323d 51d5 453d 0a47 13bd
000000f0: 5acf 98bd c4ce 9fbd 7753 8f3d fbcb 8c3c
00000100: 128e 1c3d 5c32 4fbd 5c5c 1d3d ab62 273b
00000110: ba34 783c 608e d0bb 1fa0 82bd cfbf 7cbd
00000120: 05cd 8a3c 2c0d a63d 809b 3cbd 08c7 35bd
00000130: 2780 d73d c8eb 80bd 4236 313d ea88 813c
00000140: 543d 563d 0d09 713c e51d 013d 4c86 ed3c
00000150: 2da4 da3b cd26 a83d d3f1 c2bc ed8a e83c
00000160: f7a5 533b d718 c23d e19c e93b fbbb 233d
00000170: 2d2b cd3b c6fc 25bd da49 d53d 3234 adbd
00000180: a07c 0ebd 5ac4 c63c ed37 ae3d c925 923d
00000190: 06c0 543c c1ba cd3d f7f0 3c3d 5127 aabd
000001a0: 49c8 efbc d179 42bd 79c5 d93d 6806 8abc
000001b0: 861f d43d b3cb 84bc da38 52bd 553b 383c
000001c0: ebe5 cfbc 5edf 033d 2b49 2b3d 7a64 96bc
000001d0: 09a9 54bd 4abf 3e3d e7f8 693a a888 953d
000001e0: b613 c33d ca56 863d f4c1 26bd 9b3c e3bc
000001f0: 9c22 f4bc 93f1 0cbd d7ea 7dbd fe63 fdbd
00000200: bb89 233d dc20 a83d 82f9 8e3d f755 9fbd
00000210: 17e9 4d3c 75d4 423c 74c7 af3a 051c a8bd
00000220: 1cdb e8bc a22b 13bb bea4 d6bd fd31 ac3d
00000230: 6b58 79bd 5795 933d ba39 99bd 08e2 c1bc
00000240: d520 92bd 32ae 7a3d 3d3f 063b beb8 013d
00000250: ddee 873d 6306 ac3d 76a4 0b3d 29e8 65bb
00000260: 96d9 683d 7f24 a7bc b741 2ebd 5f0c fcbc
00000270: 40d0 2fbd cec4 3c3d 56ef d2bd 978e 0bbd
00000280: b665 18bd ed7c eebc d570 c33c 6f02 9dbc
00000290: 0eb7 69bd d426 19bd 4bf1 de3c 57b2 983c
000002a0: 3d45 d43c c628 afbd cc38 843d 6308 7fbc
000002b0: 046a 993d 4fe3 513c 76b8 dfbb c938 133d
000002c0: e553 9cbd 41a7 9dbc c72e aebd ef78 c63d
000002d0: 0cb4 133d 1a69 31bd b94e 403c a525 34bd
000002e0: bf09 423d f64a 9d3d 8caa 99bd c60d c4ba
000002f0: aff9 983c 13ef b2bd d20e 2fbc 986a 3d3d
00000300: 06e0 5e3d d604 223d 614f c93a 2f50 6dbd
00000310: dcca 9cbd 8aa1 8bbc 2e0a 8dbd 5da3 b73d
00000320: d3b4 623d 53c2 03bc 3d23 5f3d ae19 bf3c
00000330: 0899 a1bd cd9a 7c3d 2821 ffbd 6929 31bd
00000340: d9a8 a03d 371f 113c 3590 663d 2e24 86bd
00000350: 8043 57bd fb8e c9bd 8037 063d ae39 aa3d
00000360: e6dd 293d bbbb 303d 61cb b33d 4e30 eb3c
00000370: 1846 b43c 366e 503d f267 68bd b1d5 a53d
00000380: a061 8c3d cd6d b0bd 6c53 a93c 7a9f 833c
00000390: 7c1b acbd 171c 7ebb 54d5 bcbc 3b40 163d
000003a0: cbd5 5ebd 4485 a53d 22c4 01bd 1204 31bc
000003b0: 47c1 acbc 6fc0 78bc 310a dfbc c6b3 13bd
000003c0: 5123 f03b 01b0 80bd a67b 0bbd 015f 213c
000003d0: d9cb 48bd 0486 d73d cb1c a9bd 59b1 98bc
000003e0: 1405 1abd eb5d febc 452b 153d a734 dc3c
000003f0: 1d90 cfbc 92f8 6a3d 0157 db3c 5e06 83bc

shared_layers.2.bias f4 [128]
0.14159302 0.019900484 -0.08708035 0.08154864 -0.08726336 0.0111089405 -0.004761742 -0.039326962
-0.08767539 -0.0465358 -0.049919866 0.09071507 0.0820291 -0.025357958 -0.013738746 -0.08563127
0.034206066 0.049943127 -0.0837525 -0.07656602 -0.023745548 -0.07058495 0.10458283 0.07436309
-0.032650016 -0.01716973 0.036629435 -0.0647769 -0.050249174 -0.0020660302 -0.05247236 -0.0018806143
-0.09424419 -0.02107553 -0.055063285 0.024518196 0.103418626 0.035150442 0.09977852 0.046312954
-0.072905965 0.060704913 0.068205796 0.08153813 -0.074335605 -0.08211647 -0.00616388 -0.014149083
0.0049122935 -0.012397516 0.061066575 -0.06365078 -0.03272981 -0.038907915 0.026968936 0.038813997
-0.029084038 -0.060014818 -0.016342143 0.043396275 0.02551637 0.116629876 -0.06546719 0.011269568
-0.025262522 -0.044346787 0.09229084 0.1265647 0.017957136 0.115004264 -0.06418438 -0.027172888
0.047749102 -0.07617822 0.008266302 -0.05960795 -0.038869478 0.007991377 0.023695976 -0.078083344
0.12768057 0.037032522 -0.053150482 0.034227 -0.038653884 0.023546353 -0.031799298 0.059129134
-0.07374647 0.13249956 -0.010267197 0.1103921 0.0009417334 0.054090902 -0.058262322 0.078941815
0.009314162 -0.029819531 -0.059079446 0.012612639 0.112038344 -0.04490991 0.09008632 0.025084212
0.004971388 0.10142217 0.009883164 0.1066571 0.02223312 0.010827629 -0.0389054 0.10418233
-0.07828421 -0.067590065 0.04572918 0.045671646 -0.05932034 -0.012724248 0.10510688 0.026871594
0.11347569 -0.09030942 -0.0799916 0.099525616 0.046941232 0.006720124 -0.00040943915 0.0182327
00000000: c3fd 103e 5706 a33c 2f57 b2bd f902 a73d
00000010: 22b7 b2bd 4602 363c 6308 9cbb 4f15 21bd
00000020: 288f b3bd 539c 3ebd c678 4cbd d3c8 b93d
00000030: dffe a73d 7ebb cfbc 7a18 61bc 735f afbd
00000040: a91b 0c3d 2a91 4c3d 6e86 abbd a5ce 9cbd
00000050: 0686 c2bc d88e 90bd 862f d63d ad4b 983d
00000060: 06bc 05bd 89a7 8cbc bf08 163d c0a9 84bd
00000070: 14d2 4dbd 3c66 07bb 42ed 56bd f27e f6ba
00000080: 1903 c1bd 97a6 acbc 0a8a 61bd 62da c83c
00000090: 25cd d33d e9f9 0f3d ae58 cc3d a7b2 3d3d
000000a0: b94f 95bd b7a5 783d 7baf 8b3d 77fd a63d
000000b0: 443d 98bd ae2c a8bd 60fa c9bb 8ed1 67bc
000000c0: 4ef7 a03b f31e 4bbc f220 7a3d 575b 82bd
000000d0: b10f 06bd e85d 1fbd f5ed dc3c 6dfb 1e3d
000000e0: a641 eebc 19d2 75bd f5df 85bc 4bc0 313d
000000f0: b507 d13c a5db ee3d aa13 86bd ffa3 383c
00000100: 59f3 cebc faa4 35bd fb02 bd3d 2d9a 013e
00000110: d81a 933c 5b87 eb3d 1a73 83bd ad99 debc
00000120: 9094 433d 5403 9cbd 626f 073c 7727 74bd
00000130: 9a35 1fbd 44ee 023c 101e c23c 29ea 9fbd
00000140: b2be 023e 6aaf 173d 52b4 59bd 9c31 0c3d
00000150: 8953 1ebd 48e4 c03c fb3f 02bd 6431 723d
00000160: 6408 97bd f7ad 073e bf37 28bc 4115 e23d
00000170: a9de 763a 6c8e 5d3d 79a4 6ebd 3fac a13d
00000180: 6d9a 183c 1748 f4bc 4afd 71bd 3ea5 4e3c
00000190: 5c74 e53d 74f3 37bd 2d7f b83d 687d cd3c
000001a0: 06e7 a23b 6db6 cf3d ffec 213c 0a6f da3d
000001b0: 3b22 b63c 5e66 313c 455b 1fbd 8c5d d53d
000001c0: 7953 a0bd a96c 8abd 854e 3b3d 3112 3b3d
000001d0: e3f9 72bd 5d79 50bc 4742 d73d d121 dc3c
000001e0: f165 e83d 25f4 b8bd a3d2 a3bd 16d4 cb3d
000001f0: 7345 403d 7c34 dc3b fea9 d6b9 be5c 953c

actor.weight f4 [5, 128]
-0.0554853 0.08947424 -0.021462755 -0.060175 -0.026175188 0.03152173 -0.06439386 -0.054205056
-0.07318617 -0.02211302 0.040892076 0.0710577 -0.03360967 -0.037711903 -0.044910196 0.027197868
0.06780408 -0.06588163 -0.02909539 0.0950757 -0.06228443 -0.059396215 0.047141794 -0.09423241
0.0406352 -0.025892967 0.02567776 -0.015041735 0.05958766 -0.059989758 0.056291103 0.067644894
0.07048505 0.0030329176 -0.0720292 0.08464093 -0.020808384 0.022939948 -0.060671665 -0.009755936
-0.04862026 -0.08277723 -0.04114856 0.040868733 0.053862292 -0.04549694 0.1148098 0.06324473
-0.013336378 0.07345376 0.088551305 0.009256636 -0.014286717 0.026507385 -0.08451628 -0.03093423
-0.05460724 0.08174864 0.05948514 -0.08292479 0.056172613 -0.0056125354 0.023745375 0.06505416
-0.032452643 0.014443448 -0.053608444 0.051477563 0.04634626 -0.05732421 0.0012139807 -0.00440101
-0.081743695 -0.050585434 -0.06011146 -0.063947886 -0.033060443 0.014731181 -0.09067736 -0.044278387
-0.015060864 0.041334648 -0.01435305 -0.022106899 0.017096603 -0.066915445 0.015070152 -0.07220551
-0.05913264 0.059902832 0.031605918 0.006023449 -0.056635614 -0.018863795 0.095376104 0.038608853
0.03711076 -0.028363612 0.050638184 0.012467063 -0.035174295 -0.06264764 0.038666785 -0.021294076
0.0427643 -0.045653895 -0.085964546 -0.015086747 0.05355902 -0.08056802 -0.051202565 -0.088447735
0.029893031 -0.032804895 0.035763852 -0.05042187 0.027976977 0.036405317 -0.06062075 -0.08326079
-0.07588256 -0.043259475 -0.013341864 -0.018529834 0.0064263167 0.041597325 0.042979147 0.07427037
-0.033738885 -0.038579073 -0.08633106 -0.031543642 0.058886427 -0.025071483 -0.011105605 -0.0803076
-0.04436668 -0.06387007 -0.032440696 -0.01297655 0.04356138 0.016653562 -0.026663858 0.07544248
-0.06063095 0.0078068357 0.07558093 -0.09031053 -0.073371716 -0.05339158 0.07616219 0.056352187
0.04134937 -0.012514823 -0.07818527 0.079269044 0.043542556 -0.085008234 0.029215276 -0.09036959
-0.02506937 0.0021897187 0.012155232 -0.08433264 -0.07541826 -0.050680727 -0.1311421 0.028859746
-0.10057136 -0.029787349 -0.030816507 -0.037309688 0.07317784 -0.06486674 -0.0022881592 -0.094064765
-0.066909716 -0.07405328 -0.09024567 -0.107974775 -0.02554623 0.0022548877 -0.09225784 0.06433452
0.075629085 -0.064138204 -0.08065428 0.029252945 -0.130121 -0.012715914 -0.039766036 -0.035272535
-0.007108924 -0.08114973 -0.061317198 0.0065942546 -0.090007044 -0.058166422 -0.11845757 -0.074826226
0.060511146 0.009722196 0.076557904 -0.06399022 -0.12192681 -0.04711641 -0.056998186 -0.036712933
-0.01742256 0.023645924 -0.07819493 0.068524756 -0.11993839 0.003029027 0.037570972 0.052024752
0.06974635 -0.04806022 -0.13532077 0.06825258 -0.057663664 -0.03257952 0.04001286 -0.014042254
0.033743042 -0.032192413 -0.050395362 0.023272032 -0.0366294 0.015908029 -0.02868534 -0.0901586
-0.07915979 -0.09478007 -0.019906428 0.030389808 0.07789438 0.027875837 0.101134665 -0.09619106
0.04490003 0.07345772 0.07554068 0.01701957 -0.112013504 -0.08886846 0.017399658 -0.12828203
-0.004192047 -0.088778906 -0.010680858 -0.05210171 0.037836745 0.010586018 0.04761605 -0.034674328
00000000: 8e44 63bd 453e b73d a9d2 afbc 107a 76bd
00000010: 596d d6bc ee1c 013d eee0 83bd 1f06 5ebd
00000020: a1e2 95bd 5d26 b5bc 737e 273d b386 913d
00000030: 4baa 09bd cc77 1abd c1f3 37bd 10ce de3c
00000040: dedc 8a3d f3ec 86bd 7559 eebc 0cb7 c23d
00000050: f51d 7fbd 7249 73bd c117 413d ecfc c0bd
00000060: 1871 263d 7d1d d4bc 2a5a d23c 9c71 76bc
00000070: 3112 743d d2b7 75bd 8091 663d 6889 8a3d
00000080: 775a 903d eac3 463b 0c84 93bd 3958 ad3d
00000090: 5876 aabc 8fec bb3c da82 78bd 5dd7 1fbc
000000a0: 0a26 47bd 1c87 a9bd 648b 28bd f965 273d
000000b0: b59e 5c3d 005b 3abd 6721 eb3d 7486 813d
000000c0: d380 5abc ed6e 963d 635a b53d 25a9 173c
000000d0: d612 6abc 0426 d93c df16 adbd c869 fdbc
000000e0: d7ab 5fbd d56b a73d b1a6 733d 79d4 a9bd
000000f0: 4115 663d 5ce9 b7bb a985 c23c 1e3b 853d
00000100: 10ed 04bd 36a4 6c3c 8794 5bbd 23da 523d
00000110: 93d5 3d3d cacc 6abd 6f1e 9f3a 5936 90bb
00000120: 3d69 a7bd ac32 4fbd 6f37 76bd 1cf7 82bd
00000130: 636a 07bd 0d5b 713c 0db5 b9bd 415d 35bd
00000140: d8c1 76bc 854e 293d 0e29 6bbc 8719 b5bc
00000150: 2d0e 8c3c f70a 89bd cce8 763c 7ce0 93bd
00000160: 1135 72bd ac5c 753d 3575 013d 5a60 c53b
00000170: bffa 67bd 3f88 9abc 8c54 c33d 5124 1e3d
00000180: 7401 183d ce5a e8bc fc69 4f3d a742 4c3c
00000190: ec12 10bd 684d 80bd 1061 1e3d ea70 aebc
000001a0: 9e29 2f3d 94ff 3abd 2e0e b0bd 672e 77bc
000001b0: b460 5b3d d900 a5bd c8b9 51bd 1624 b5bd
000001c0: 3be2 f43c 6d5e 06bd 1e7d 123d 2a87 4ebd
000001d0: f92f e53c be1d 153d 774d 78bd a284 aabd
000001e0: 5168 9bbd d930 31bd d597 5abc e1cb 97bc
000001f0: da93 d23b f561 2a3d e70a 303d 101b 983d
00000200: c931 0abd 1705 1ebd 57ce b0bd e833 01bd
00000210: e532 713d b662 cdbc 49f4 35bc 5078 a4bd
00000220: d6b9 35bd 50ce 82bd 89e0 04bd 989b 54bc
00000230: 6b6d 323d 0d6d 883c 2a6e dabc 9681 9a3d
00000240: 2958 78bd 7cd0 ff3b 2dca 9a3d baf4 b8bd
00000250: e943 96bd 21b1 5abd ecfa 9b3d 8dd1 663d
00000260: f55d 293d f90a 4dbc 991f a0bd cf57 a23d
00000270: ae59 323d cc18 aebd e054 ef3c b113 b9bd
00000280: 485e cdbc 6281 0f3b bd26 473c 97b6 acbd
00000290: e474 9abd 9896 4fbd 1d4a 06be 466b ec3c
000002a0: 5bf8 cdbd 9904 f4bc e672 fcbc 0bd2 18bd
000002b0: 43de 953d dad8 84bd f1f4 15bb 07a5 c0bd
000002c0: f607 89bd 3fa9 97bd b9d2 b8bd e121 ddbd
000002d0: 5446 d1bc bdc6 133b aef1 bcbd d1c1 833d
000002e0: 6ce3 9a3d e45a 83bd 122e a5bd dfa3 ef3c
000002f0: 703e 05be 6956 50bc b6e1 22bd ef79 10bd
00000300: faf1 e8bb d431 a6bd be27 7bbd 9e14 d83b
00000310: 9d55 b8bd ea3f 6ebd e299 f2bd 7e3e 99bd
00000320: 89da 773d d849 1f3c 64ca 9c3d 4e0d 83bd
00000330: c3b4 f9bd 23fd 40bd ee76 69bd 4d60 16bd
00000340: c2b9 8ebc 19b5 c13c aa24 a0bd b556 8c3d
00000350: 42a2 f5bd a482 463b 05e4 193d e817 553d
00000360: 2dd7 8e3d cbda 44bd 8791 0abe 02c8 8b3d
00000370: bc30 6cbd 1a72 05bd 86e4 233d 7b11 66bc
00000380: 2536 0a3d 31dc 03bd 5e6b 4ebd fda4 be3c
00000390: b608 16bd 8e51 823c 85fd eabc 12a5 b8bd
000003a0: 871e a2bd 0e1c c2bd ce12 a3bc 0cf4 f83c
000003b0: 1787 9f3d de5b e43c b11f cf3d d2ff c4bd
000003c0: 18e9 373d 0071 963d 12b5 9a3d a06c 8b3c
000003d0: 5667 e5bd ab00 b6bd ba89 8e3c 5d5c 03be
000003e0: 705d 89bb b7d1 b5bd c4fe 2ebc 9a68 55bd
000003f0: b4fa 1a3d fa70 2d3c 0c09 433d ab06 0ebd

actor.bias f4 [5]
-0.059404355 -0.057696335 -0.0039726743 0.028695405 -0.06429373
00000000: fb51 73bd fe52 6cbd 352d 82bb a012 eb3c
00000010: 6eac 83bd

critic.weight f4 [1, 128]
-0.13064417 0.07330238 -0.049302414 -0.06818004 -0.012274993 -0.0915057 -0.09109974 0.023946228
-0.014299626 -0.07946858 0.07974396 -0.115067355 -0.097092554 0.096964456 -0.005266048 -0.06320338
-0.07437907 0.055302907 -0.008637122 -0.0010441691 0.0350561 0.020082813 -0.07911108 -0.058809366
-0.03635736 0.082259804 0.011900434 -0.0512317 0.054461397 0.07119999 0.07714104 0.08841011
-0.040720392 0.026350789 0.13693099 -0.013762398 -0.05322118 -0.017231168 -0.08018859 0.06992879
0.07816465 0.01644738 -0.038298555 -0.09016851 0.046252366 0.0033810372 0.05448391 0.018097226
-0.0416756 0.031926822 -0.0565203 0.11922351 0.07310931 0.016355382 0.016637726 0.052542735
0.026243595 0.03928938 -0.010353755 -0.070961505 0.040457893 -0.12101246 -0.05897909 0.029053062
0.0332703 0.05272235 -0.067286685 -0.089234486 -0.09899548 -0.07890027 0.06865721 0.065924756
-0.07734852 -0.02704178 -0.056707125 -0.05345394 0.068705365 0.033801816 -0.017876744 -0.0041436953
-0.069333605 0.016630223 0.050778173 -0.035280332 0.13576199 -0.057586327 -0.0095383655 -0.089331746
-0.070754014 -0.09626233 0.11042116 -0.094130546 -0.081948936 -0.09057972 0.012985626 -0.06283695
0.092576966 -0.026436485 0.052539133 0.039825317 -0.036945365 -0.0267421 -0.111148834 0.048708573
0.08966791 -0.114938736 -0.08324458 -0.06786622 -0.090412065 0.02644262 -0.037170015 -0.047567874
-0.0013825678 -0.05779981 -0.10231788 -0.08194339 0.12394181 0.04806775 -0.07699282 0.013851998
-0.12577991 0.09547843 -0.05552288 -0.07597992 -0.11104016 0.065844856 -0.000261884 -0.008082605
00000000: 96c7 05be 8f1f 963d 54f1 49bd faa1 8bbd
00000010: 0d1d 49bc 5767 bbbd 8092 babd e12a c43c
00000020: fb48 6abc 6cc0 a2bd cd50 a33d 6fa8 ebbd
00000030: 76d8 c6bd 4d95 c63d d08e acbb c670 81bd
00000040: 0e54 98bd 4d85 623d b782 0dbc 80dc 88ba
00000050: fc96 0f3d b684 a43c fd04 a2bd 17e2 70bd
00000060: 75eb 14bd d477 a83d 0afa 423c 55d8 51bd
00000070: ea12 5f3d 4dd1 913d 1ffc 9d3d 5c10 b53d
00000080: 6dca 26bd 9cdd d73c a337 0c3e ae7b 61bc
00000090: 74fe 59bd 6128 8dbc ea39 a4bd d336 8f3d
000000a0: ca14 a03d a8bc 863c f2de 1cbd 45aa b8bd
000000b0: 1f73 3d3d 6494 5d3b 852a 5f3d a240 943c
000000c0: 09b4 2abd b3c5 023d d581 67bd 752b f43d
000000d0: 55ba 953d b9fb 853c d74b 883c 0d37 573d
000000e0: cffc d63c e7ed 203d cca2 29bc 4454 91bd
000000f0: 2db7 253d 61d5 f7bd 0f94 71bd b000 ee3c
00000100: 7046 083d 64f3 573d 9acd 89bd 92c0 b6bd
00000110: 24be cabd 7796 a1bd 279c 8c3d 8f03 873d
00000120: e768 9ebd b986 ddbc bb45 68bd 85f2 5abd
00000130: 66b5 8c3d c673 0a3d 4072 92bc d6c7 87bb
00000140: c7fe 8dbd 1b3c 883c c6fc 4f3d 1c82 10bd
00000150: 3105 0b3e a4df 6bbd ce46 1cbc 90f3 b6bd
00000160: 7be7 90bd 2f25 c5bd 7d24 e23d 84c7 c0bd
00000170: d8d4 a7bd dc81 b9bd aac1 543c a9b0 80bd
00000180: fe98 bd3d 5491 d8bc 4633 573d df1f 233d
00000190: 0654 17bd 4012 dbbc 00a2 e3bd a482 473d
000001a0: cfa3 b73d 0065 ebbd 227c aabd 72fd 8abd
000001b0: f629 b9bd 329e d83c 963f 18bd 88d6 42bd
000001c0: 4737 b5ba 7ebf 6cbd 098c d1bd f0d1 a7bd
000001d0: 34d5 fd3d b0e2 443d 69ae 9dbd 7ef3 623c
000001e0: 73cc 00be 328a c33d f66b 63bd 5c9b 9bbd
000001f0: 0669 e3bd abd9 863d 7a4d 89b9 e76c 04bc
