predator.pth (torch, 34712 bytes, 4 tensors)

fc1.weight f4 [64, 120]
000000 64 67 d4 bc 2b 0b 09 bd d0 e9 86 3c 12 4d 95 3d
       -0.025928207 -0.033457916 0.016468912 0.072900906
000010 7c 3c 49 3d 24 15 28 bd cc e2 05 3d 18 5a 45 3d
       0.049129948 -0.041035786 0.032686993 0.048181623
000020 72 19 83 3d 00 17 b7 3d 66 4d b2 bd 3c 5b cd 3c
       0.06401338 0.08939934 -0.08706169 0.025067918
000030 8c 95 66 3d 7c 67 58 3d 94 ac 77 3d f4 23 98 3c
       0.056294963 0.052833065 0.060467318 0.018571831
000040 cd 38 8a bd 42 77 07 bd e1 bb 2c bd da 5b 81 3d
       -0.06749115 -0.033072717 -0.042171363 0.063163474
000050 28 4a a3 bc ae 2d ff bc c6 35 a0 3d 60 70 05 3b
       -0.019932821 -0.031149711 0.078227565 0.002036117
000060 cc 9b 73 3d 65 d3 53 bd a6 50 ac bd da 29 a4 bd
       0.05947475 -0.051715273 -0.0841382 -0.08015795
000070 90 32 a6 bb a0 f9 ac 3d 20 f4 6b 3d c0 be 95 3d
       -0.0050719455 0.0844605 0.057605863 0.07311773
000080 4e 3f 53 bd 60 7a 0e 3d 5e d4 aa 3d 90 c7 91 bd
       -0.051574044 0.034784675 0.08341287 -0.07118142
000090 88 19 d2 bc e8 87 31 bc 78 bb 07 bc 52 32 6c bd
       -0.02564694 -0.010835625 -0.008284442 -0.057665177
0000a0 a2 85 ec bc f8 01 a7 3d e0 65 0e 3d ed a8 65 bd
       -0.028872315 0.081546724 0.034765124 -0.056069303
0000b0 80 51 34 bb ce 88 02 3d d0 e3 3e 3d 08 10 80 3d
       -0.0027514398 0.03186875 0.046603978 0.06253058
0000c0 94 05 ae 3d 4c 15 88 bc 73 29 00 bd 38 bf af bd
       0.08497158 -0.016611718 -0.03128953 -0.08581394
0000d0 00 99 94 bc f4 d1 ee 3c a6 ed a8 3d c0 74 0a bb
       -0.018139362 0.029152848 0.08248453 -0.0021126717
0000e0 65 c3 67 bd 80 9d 77 3d 4c de 99 3d 4c 49 a6 bd
       -0.056582827 0.060452938 0.07513103 -0.08119449
0000f0 04 91 42 3d c8 ae 09 bc 9c 96 81 3d 76 b7 01 bd
       0.04750158 -0.0084034875 0.063275546 -0.031669103
000100 20 08 64 3b 5c 68 db 3c f8 06 98 bc c0 6e d5 bc
       0.0034794882 0.02678316 -0.01855801 -0.026053786
000110 ab 2d 8c bd 28 d9 0e bc 2c 17 13 bd 58 97 14 3d
       -0.06844648 -0.008718766 -0.03591077 0.036277145
000120 47 16 58 bd d8 83 da bc 40 6b a5 ba d8 91 fd bc
       -0.05275562 -0.026674196 -0.0012620464 -0.030953333
000130 fa 51 46 bd 10 a0 8e 3d d8 23 9a bd 94 29 f3 bc
       -0.048418023 0.06964123 -0.07526368 -0.029682912
000140 5c d3 5a 3d d0 41 aa 3d 8d 96 b1 bd 2c 32 32 3d
       0.053424224 0.08313334 -0.086712934 0.04350488
000150 00 41 15 ba 90 eb 55 3d d3 08 8c bd c0 ef d4 3b
       -0.00056935847 0.052226603 -0.068376206 0.006498307
000160 f0 6d b5 bb 38 57 66 3d f1 8c 27 bd a8 8d b6 3d
       -0.005536787 0.056235522 -0.040905897 0.089137375
000170 78 11 01 bc 92 a3 92 3d 34 97 30 bd 48 ea 1c 3c
       -0.0078777 0.07160105 -0.04311295 0.009577341
000180 0c 26 b4 3d a6 c2 99 3d e4 4a 47 3d 1f f7 21 bd
       0.08796319 0.07507829 0.048655406 -0.039542314
000190 08 62 21 bc 65 59 07 bd 0a fc 94 3d 28 01 ad 3d
       -0.009850033 -0.033044238 0.07274635 0.08447486
0001a0 c4 35 81 3c 34 2b 81 bc fa 67 1f bd 1c c7 73 3d
       0.015772708 -0.015767671 -0.03891752 0.059516057
0001b0 5a 8e 89 3d 8c 00 f3 bc b4 db ae 3c 72 91 89 3d
       0.067166045 -0.029663347 0.021344997 0.067171946
0001c0 18 14 03 3c be f9 89 3d 6c a3 3d bd 3c bf 93 3d
       0.008000396 0.06737088 -0.04629843 0.072142094
0001d0 74 36 42 3d 88 46 54 3c d8 dd bb bc 22 19 8b bd
       0.04741521 0.012956269 -0.022932932 -0.06791903
0001e0 c8 32 7a bc 34 94 37 3d a8 99 ed 3c 00 62 c3 ba
       -0.015270896 0.044819072 0.029003933 -0.0014906526
0001f0 94 d1 04 3d ea c2 99 bd 79 11 af bd c0 9e 61 3d
       0.03242643 -0.0750788 -0.085482545 0.055083036
000200 94 0b 3f 3d 18 7e 7a 3d 98 60 4e 3d be e4 a3 3d
       0.0466419 0.06115541 0.050385088 0.080026135
000210 88 b9 96 3d 3a c1 9b bd a0 90 55 3b 00 31 68 bc
       0.07359606 -0.076052144 0.0032587424 -0.014171839
000220 d4 57 83 3d a2 a2 aa 3d 7c 4b 8f 3d 58 ac 7a 3d
       0.06413236 0.08331801 0.069968194 0.061199516
000230 73 23 9a bd 23 8e 69 bd f4 f7 83 3c d5 a2 a2 bd
       -0.07526293 -0.057020318 0.016109444 -0.07941214
000240 38 72 8b 3d f2 e5 40 bd 4b 15 4c bd a4 96 c4 bc
       0.06808895 -0.047094293 -0.049824994 -0.023997612
000250 16 b5 8e 3d 70 bb 9e 3c 93 4b 96 bd dc 57 ac 3d
       0.06968133 0.019376487 -0.073386334 0.08415195
000260 9c 95 37 3d 54 d7 43 3d 00 a1 b8 39 57 82 1c bd
       0.044820413 0.047812775 0.0003521517 -0.03821024
000270 f8 9c 94 bd 53 0d 9c bd 4a ff 87 bd b8 96 7d 3d
       -0.07256502 -0.07619729 -0.066404894 0.061911315
000280 4c 97 72 3d bc ae d6 bc 44 27 9c 3d 48 a2 37 bc
       0.05922632 -0.026206367 0.07624677 -0.011208124
000290 60 3b 9d bd c4 c5 41 3d dc 62 a7 3d 30 b5 da 3c
       -0.076773405 0.047307745 0.08173153 0.026697725
0002a0 80 aa 0f bb 32 2f 53 bd dc a1 25 3d 9f 0d 93 bd
       -0.0021921694 -0.05155868 0.040437564 -0.071803324
0002b0 e8 f1 b2 bd cc e3 16 3d ef 36 54 bd 0a ba b5 3d
       -0.08737546 0.036838338 -0.0518102 0.08873375
0002c0 68 1f 6a bc 50 cd 47 bc c4 60 60 3d 98 dd 42 3d
       -0.014289714 -0.012194946 0.054779783 0.04757461
0002d0 a8 bb aa 3d cc fa d0 3c a6 de 65 bd 10 65 61 bd
       0.08336574 0.025510214 -0.056120537 -0.05502802
0002e0 c0 ed eb ba f0 83 aa bb 61 c6 3f bd 74 2e e4 bc
       -0.0017999932 -0.0052037165 -0.04682005 -0.027854182
0002f0 e8 bb 22 bc 24 3f b3 3d 58 0b 5e 3c f8 45 b9 bc
       -0.009932496 0.087522775 0.013552509 -0.022616372
000300 10 76 1e bc 6c 47 e7 3c 00 b4 18 b9 80 70 8c bd
       -0.009671703 0.028232299 -0.00014562905 -0.06857395
000310 70 45 0a 3d 42 c0 60 bd 50 1b 89 bc b2 e3 9f 3d
       0.033757627 -0.05487085 -0.016736656 0.07807101
000320 c0 fe da ba 1e eb 7d bd 96 51 14 bd 24 85 c7 bc
       -0.0016708001 -0.061991803 -0.03621062 -0.024355479
000330 4a 45 83 bd a0 09 8e bd 23 9b b7 bd 00 6a ee 3c
       -0.064097 -0.069354296 -0.08965137 0.02910328
000340 b0 47 1e bc 94 59 9b 3d d8 d9 4a 3c 40 47 d2 ba
       -0.009660646 0.07585445 0.01238104 -0.0016042963
000350 75 34 34 bd 07 28 33 bd 20 16 81 3c d8 65 1f 3d
       -0.04399534 -0.043739345 0.01575762 0.038915485
000360 bc db 86 bd f0 80 83 3d b7 4d 24 bd 18 d1 85 3c
       -0.0658488 0.06421077 -0.040113177 0.016335055
000370 90 1e 28 3c ac 57 6f 3d 54 95 57 3d 24 7f 40 3d
       0.010261193 0.05843322 0.052632645 0.04699625
000380 c7 75 08 bd 38 65 6b 3d d0 8d e6 3c 10 f1 44 bd
       -0.033315446 0.057469577 0.028143793 -0.048081458
000390 92 93 00 3d 84 53 d8 bc a0 fc b9 bb 70 52 d0 bb
       0.031390734 -0.02640701 -0.005675867 -0.0063574836
0003a0 10 2e d2 bb 66 14 28 bd f6 0f 33 bd b4 33 c4 3c
       -0.0064141825 -0.04103508 -0.043716393 0.023950435
0003b0 40 ce 33 bb e8 f5 74 3c bc 25 ba 3d f8 6c 56 3c
       -0.0027436167 0.014951207 0.090892285 0.013087504
0003c0 45 1f 04 bd 4d d2 64 bd 40 f0 fe bb 60 c2 31 3b
       -0.032256383 -0.05586462 -0.007780105 0.0027123913
0003d0 c0 4f 0a 3d 08 d1 87 bd f8 e7 56 bd f5 14 0c bd
       0.03376746 -0.066316664 -0.052467316 -0.034199674
0003e0 74 11 72 bd 0f 4d 46 bd c4 d2 76 bd a2 3b b2 bd
       -0.059098676 -0.048413333 -0.060259596 -0.0870278
0003f0 8c 9a 28 bd d4 e4 14 3d 66 d7 8f bd 78 0d 00 bd
       -0.041163012 0.03635104 -0.07023506 -0.031262845

fc1.bias f4 [64]
000000 00 26 07 bd 50 e9 74 bc 3f 60 59 bd ee 19 98 3d
       -0.032995224 -0.014948204 -0.053070303 0.07426821
000010 9a e1 13 bd ce 33 a0 3d 40 3d 7d 3d 1e 74 92 bd
       -0.036103822 0.07822381 0.06182599 -0.07151054
000020 64 7b aa bd 6e 11 83 3d fb 58 5d bd c4 6c 25 bd
       -0.08324316 0.06399809 -0.054039937 -0.04038693
000030 3c d5 05 3d 7b 6e 3f bd e8 d2 d8 3c 0a 5b 5f bd
       0.03267406 -0.04673622 0.026467755 -0.05453018
000040 0c e8 b9 bd a2 5c b4 bd b2 cd 9f bd 30 a3 e1 bc
       -0.090774626 -0.08806731 -0.07802905 -0.027543634
000050 ca af ba bd 30 6a b9 3d 80 43 16 bc c4 a8 e3 bc
       -0.0911556 0.09053457 -0.009171367 -0.027790435
000060 b6 a4 13 bd c0 51 af bd 10 1f 61 bc 08 63 49 3d
       -0.036045752 -0.085605145 -0.013740316 0.04916671
000070 64 c6 28 3d de 9f 7b bd 4b dc 16 bd f2 26 86 bd
       0.041204825 -0.061431758 -0.03683118 -0.06550397
000080 40 8b 60 3b 2c c3 81 bc c7 2a 7d bd 60 c1 a1 bd
       0.0034262687 -0.015840136 -0.061808374 -0.078982115
000090 28 9a 65 3d 94 f3 97 3c 49 91 51 bd 28 14 5f bd
       0.056055218 0.018548764 -0.051163945 -0.054462582
0000a0 e0 b1 d0 3b 88 ed 78 bd c0 f5 77 3d 51 7b 2c bd
       0.0063688606 -0.060773402 0.0605371 -0.04210979
0000b0 00 6f 04 3d 98 fd 13 3d 18 29 5c bc 74 c0 93 bd
       0.03233242 0.036130518 -0.013437532 -0.07214442
0000c0 20 89 00 3c 10 5c f0 3c c6 93 6d bd 20 2b 14 3c
       0.007845193 0.029340774 -0.058002256 0.009043485
0000d0 2d 5a 88 bd 9e a3 24 bd 84 e7 4c 3d 88 f3 8a 3d
       -0.06657825 -0.0401951 0.050025478 0.06784731
0000e0 79 d8 17 bd f4 de 72 3d 72 ac 1c bd f0 d4 2a bc
       -0.03707168 0.059294656 -0.038250394 -0.010426745
0000f0 ea 5b 95 3d 36 db 86 bd 30 f0 6c 3d 89 23 8a bd
       0.07292922 -0.0658478 0.05784625 -0.06745059

fc2.weight f4 [5, 64]
000000 8c e8 0e bd c2 3a c4 3d 28 53 2b 3d 5e 90 ab bd
       -0.034889743 0.0958152 0.04182735 -0.08377145
000010 8a 9c c1 3d 4a ab f6 bd e8 f8 24 bd de 60 b6 3d
       0.094536856 -0.120443895 -0.040276438 0.08905195
000020 58 a7 70 3d b0 72 93 bd 70 fc 52 bc f6 86 f1 bd
       0.05875334 -0.07199609 -0.012877569 -0.1179332
000030 80 5f fc 3c 40 f7 0c bd e8 3b 9c 3d b0 b5 52 3c
       0.030807257 -0.034415483 0.07628614 0.0128607005
000040 f0 3c 2d 3d 14 95 bd bd 54 86 5c 3d 36 5b 85 3d
       0.042294443 -0.0925695 0.053839043 0.06511538
000050 c0 7b cb 3b 9c 7a 2d 3d 50 3f bc 3d 70 97 73 3d
       0.0062098205 0.042353258 0.091917634 0.059470594
000060 80 dd 36 3d f0 b0 63 bc 50 91 36 bd 90 84 78 3c
       0.044644833 -0.013897166 -0.044572175 0.015168324
000070 98 bc c0 3d 38 28 3f bd bc 1e d5 bd 9c fb fc 3d
       0.094109714 -0.046669215 -0.10406253 0.12352678
000080 7a 06 d9 3d d6 4d b3 bd be 74 e1 bd f8 25 db bc
       0.105969384 -0.087550804 -0.11008595 -0.026751503
000090 9a b4 b6 bd 24 4b 75 3d fa 11 a1 3d aa 23 db bd
       -0.08921166 0.059886113 0.07864757 -0.10700162
0000a0 70 9c 2e bd 18 23 d3 3c 58 8f d3 bd 00 a0 19 b9
       -0.04262966 0.02577357 -0.10330075 -0.00014650822
0000b0 64 ca c2 bd 3c d8 1f bd 10 77 a3 bc 72 ac c9 3d
       -0.09511259 -0.039024577 -0.019954234 0.098473445
0000c0 66 fb e7 bd 80 af a1 bd dc 27 9d 3d 2a ae a4 bd
       -0.11327247 -0.07894802 0.07673618 -0.08041032
0000d0 50 91 c4 3d 78 84 97 3d 2e 0d b7 3d ce 47 f4 bd
       0.09598029 0.07398313 0.08938061 -0.11927758
0000e0 12 76 c5 3d 6a 0c 91 bd 26 a0 fb bd 2e 08 85 bd
       0.09641661 -0.07082446 -0.12286405 -0.06495701
0000f0 74 11 0f bd 50 5b 70 bc 70 94 95 3c c6 0e fc 3d
       -0.034928754 -0.014670208 0.018259257 0.12307505
000100 a0 d1 ee 3d 00 e5 5d ba 50 0a 50 3d 12 aa 97 3d
       0.116610765 -0.00084646046 0.050791085 0.07405485
000110 4c 02 2a 3d a4 e1 e9 bd 1c 03 5e bd 72 c2 da bd
       0.041506097 -0.11419991 -0.054202184 -0.10681619
000120 ac 60 23 3d 80 d6 f6 bb e8 3a 5b bd 30 12 76 3d
       0.039887115 -0.0075328946 -0.053522974 0.06007594
000130 66 31 9e bd d4 82 86 bd e8 27 96 3d e4 d3 93 3d
       -0.07724266 -0.06567922 0.0733183 0.07218149
000140 e4 a5 c3 bd 1a 92 c5 bd 1a 77 eb 3d 04 bc 77 3d
       -0.095531255 -0.09647007 0.11497326 0.06048204
000150 a0 ca 7b bd c4 32 b3 bd fc 93 f8 3d 54 d7 9c 3d
       -0.061472535 -0.08749917 0.12137601 0.07658258
000160 a4 76 99 3d 7c b8 0d 3d 00 bb c3 bb b0 38 53 bd
       0.07493332 0.034599766 -0.00597322 -0.051567733
000170 60 7d a3 bc d6 72 df bd d6 f2 dc 3d 70 64 e5 3d
       -0.019957244 -0.10910575 0.10788505 0.112007976
000180 00 bf b1 ba 84 5b 3a bd 50 ca c7 bc 5c 45 32 3d
       -0.0013560951 -0.045497432 -0.024388462 0.043523178
000190 fe 91 c9 bd 26 f3 8b 3d a8 e6 19 bd 38 db e7 bc
       -0.09842299 0.06833486 -0.037573487 -0.028302774
0001a0 c2 10 85 3d 0c 72 8e bd da 6b c5 bd b8 4d 69 bd
       0.06497337 -0.069553465 -0.09639712 -0.056958884
0001b0 20 60 d1 3c cc 91 91 3d e8 3d f5 bd 86 49 ad 3d
       0.025558531 0.07107887 -0.11974698 0.08461289
0001c0 60 a1 46 3d 70 25 2a 3d 88 af b5 3d 56 fe ab bd
       0.048493743 0.04153961 0.088713706 -0.0839812
0001d0 44 82 87 bd dc 18 66 bd 80 b7 29 3c e8 04 6f bd
       -0.06616643 -0.05617605 0.010358691 -0.05835429
0001e0 44 35 df 3d 8e 04 af 3d e0 45 29 3d 2a 75 bd bd
       0.108988315 0.085457906 0.041326404 -0.09250863
0001f0 58 ff b2 3d 00 28 7d bc 68 2b 9a bc 90 b7 a7 bd
       0.08740109 -0.015451431 -0.018819526 -0.08189309
000200 08 03 a1 3c d6 30 fd bd dc ad c9 bd 94 b6 f4 bd
       0.019654766 -0.1236283 -0.09847614 -0.119488865
000210 d0 67 e9 3c f8 d2 ee 3d 30 08 88 3d b4 14 8e 3d
       0.028491884 0.11661333 0.06642187 0.069375426
000220 b0 04 66 3d 12 f7 ec bd 3e a2 8a bd aa eb 8d bd
       0.056156814 -0.115705624 -0.067692265 -0.06929715
000230 a0 ed 70 bc 1c a2 9d 3d c0 70 f0 bd f0 a4 4f bc
       -0.014705092 0.076969355 -0.11740255 -0.0126736015
000240 e8 5b 89 3d 1a 2c fc 3d 9e 50 ab 3d e0 5b 24 3c
       0.06706983 0.12313099 0.08364986 0.01003167
000250 e2 25 80 3d 4a 64 d5 3d 60 b3 db 3b 46 12 97 3d
       0.062572256 0.10419519 0.006704733 0.07376532
000260 20 ef cd 3b 44 50 d1 3d 50 2b 96 3d 22 9f c1 3d
       0.0062846094 0.102203876 0.0733248 0.0945418
000270 bc 3e 62 3d 50 00 1b bc 1c ad 8f 3d 16 a8 f9 bd
       0.05523561 -0.009460524 0.0701544 -0.12190263
000280 82 01 a4 bd 4c 5f 53 3d 50 e0 12 3d 90 aa 34 bd
       -0.080081 0.051604554 0.035858452 -0.044107974
000290 44 7d 3b bd 2a ac e8 3d e0 13 46 3c 5e eb b4 3d
       -0.04577376 0.11360963 0.0120896995 0.08833955
0002a0 60 7b fc 3b 06 6d b9 3d 08 ba 56 3d d6 8c f9 bd
       0.007705137 0.09053998 0.052423507 -0.121850654
0002b0 02 e7 8e bd 40 f5 06 3c b6 ef a4 3d 4c 26 2f bd
       -0.06977655 0.008237183 0.08053534 -0.042761132
0002c0 9e fa f6 3d f4 93 c3 bd 70 b4 ac bc 02 54 96 3d
       0.1205952 -0.09549704 -0.021082133 0.07340242
0002d0 a4 28 af 3d 40 2c 85 3b a6 44 a9 bd b2 48 e6 3d
       0.085526735 0.004064113 -0.08265047 0.11244334
0002e0 a0 2e 4a bd c4 15 ea 3d ba b8 fd 3d 32 4c 98 3d
       -0.04936087 0.11429933 0.123887494 0.07436408
0002f0 b0 7f 15 3d 4c 10 ec 3d 9e 78 f7 3d 74 06 b1 3d
       0.036498725 0.11526546 0.12083553 0.08643809
000300 a4 34 7e bd 10 09 84 bc a8 b4 f8 bd b6 a2 93 bd
       -0.06206192 -0.016117603 -0.121438324 -0.07208769
000310 78 e4 81 bd b4 d6 18 bd f0 dd ea 3d 98 86 48 3d
       -0.06342405 -0.03731413 0.114681125 0.048956484
000320 b4 4a 4d bd 72 76 f4 3d cc 0b 06 bd cc 00 a8 3d
       -0.05012007 0.11936654 -0.032726094 0.08203277
000330 00 fd 02 3d 6e 75 9e bd 3c 48 e4 3d 5c ef 1e bd
       0.03197956 -0.07737242 0.1114659 -0.03880249
000340 c8 97 49 bd c6 ee fa 3d 68 71 6b bd e8 09 ac 3c
       -0.049217016 0.12252574 -0.0574812 0.021000817
000350 c0 98 23 bc c8 1b 32 bd 08 82 59 bd fa db e9 bd
       -0.009985149 -0.043483526 -0.053102523 -0.1141891
000360 d0 c9 79 3c dc 0a 42 bd 80 2a d6 bc ea c0 b9 3d
       0.01524587 -0.047373638 -0.026143312 0.090699986
000370 c8 50 e2 3c aa 99 f6 3d 20 bb 93 3c 98 89 2f bd
       0.02762641 0.12041028 0.018033564 -0.04285583
000380 08 1d f7 3c 1a c3 86 3d 80 f1 6b 3d d0 38 a3 bd
       0.03016521 0.065801814 0.05760336 -0.079698205
000390 bc 4e b3 3d 0a fd bb 3d 44 51 39 3d c0 dc f2 bc
       0.08755252 0.09179123 0.045243517 -0.029646277
0003a0 9c d2 65 bd 30 a8 27 bc d6 af d7 3d 30 28 c2 bd
       -0.056109056 -0.01023297 0.10531585 -0.094803214
0003b0 00 19 f9 bc e2 61 bd 3d 7c c0 46 bd 92 ea 9b 3d
       -0.030407429 0.09247185 -0.04852341 0.076131
0003c0 4e 8f 8a 3d e4 24 d9 bd d0 88 a3 3c fc fc ad bd
       0.067656144 -0.106027395 0.019962698 -0.084955186
0003d0 d4 aa 4c bd 20 d9 a8 3d ec fc e7 bd 2c 13 90 3d
       -0.049967602 0.08244538 -0.11327538 0.07034907
0003e0 d4 47 30 3d 76 ed ac 3d 70 f6 70 bd 08 04 c9 bc
       0.04303725 0.084437296 -0.05882877 -0.024538055
0003f0 90 c1 8e bd 84 a9 de 3d 10 15 f6 bd 34 d1 0b bd
       -0.06970513 0.10872176 -0.12015736 -0.03413506

fc2.bias f4 [5]
000000 b0 35 d4 bc 4c 79 fb bd 7c c1 d3 3d 20 7b 68 3d
       -0.025904506 -0.12278995 0.103396386 0.056758046
000010 5c b8 ea 3d
       0.11460945
