prey_ppo_agent.pth (torch, 892308 bytes, 7 tensors)

shared_layers.0.weight f4 [128, 1600]
0	0xbc97f71a	-0.018550444
1	0x3bfe0ede	0.007753237
2	0x3c93d0d4	0.018043913
3	0x3c24c5b6	0.010056904
4	0x3bfc418b	0.007698243
5	0x3cded80e	0.027202632
6	0x3ca0a451	0.019609602
7	0x3cc1590a	0.023602027
8	0xbce3e1eb	-0.027817687
9	0xbc1b7bc5	-0.009489958
10	0xbb728508	-0.0037005562
11	0x3c4ce313	0.012505311
12	0xbce6b112	-0.028160606
13	0x3d0d2719	0.034461115
14	0xbcc07bc0	-0.023496509
15	0xbbd7c404	-0.006584646
16	0x3c0effa1	0.008727939
17	0xbbb3891e	-0.005478992
18	0x3afa2dff	0.0019087194
19	0x3c7b9028	0.015354194
20	0x3b804c05	0.0039153122
21	0x3bca5ed7	0.0061758566
22	0xbc5ba359	-0.013405644
23	0xbbfa7ad5	-0.0076440373
24	0x3c9b90b6	0.018989902
25	0x3c5c5ca1	0.013449819
26	0x37288e75	1.0046749e-05
27	0x3c016e4f	0.007899835
28	0x3b0d7836	0.0021586544
29	0x3cbc3fa2	0.022979561
30	0x3cb4d969	0.022076325
31	0x3ceeac18	0.029134795
32	0xbcdbd222	-0.026833598
33	0x3ce6894d	0.028141642
34	0x3b1137b8	0.0022158455
35	0xbc81d434	-0.015848257
36	0x3d1f87be	0.038947813
37	0x3bc5f9a9	0.0060417247
38	0xbc82a30a	-0.015946884
39	0x3b450246	0.003006117
40	0x3cb92f20	0.022605479
41	0x3c056780	0.008142352
42	0xbc24e8db	-0.010065283
43	0xbbaee709	-0.0053376
44	0xbabcf925	-0.0014417513
45	0x3d0a782f	0.033806022
46	0xbc7f0094	-0.015564103
47	0xbca5f965	-0.020260522
48	0x3ac8f20b	0.0015330923
49	0x3b9099f6	0.004412885
50	0x3c941bae	0.018079605
51	0x3d249197	0.040177908
52	0x3c4ad549	0.012379953
53	0xbad09700	-0.0015914142
54	0xbbe020ba	-0.006839839
55	0x3ccd6cf2	0.025076363
56	0x3c601c6a	0.013678649
57	0x3ced42d0	0.028962523
58	0xbc090616	-0.008363267
59	0xbc09624c	-0.008385252
60	0x3be2f84b	0.0069265715
61	0xbb448896	-0.0029988638
62	0x3955ca97	0.00020388734
63	0xbb8e2ed7	-0.00433908
64	0x3d05acbf	0.032635447
65	0xbb082f80	-0.0020780265
66	0xbc7c6778	-0.015405528
67	0x3cd5cebb	0.026099553
68	0x3c45ea82	0.012079837
69	0xbb15e950	-0.002287466
70	0x3ca27ad9	0.019833969
71	0x3c5ebeed	0.013595325
72	0x3b1f5734	0.0024313452
73	0x3c621737	0.01379948
74	0xbb32e113	-0.00272948
75	0x3d15fe49	0.03661946
76	0x3cb678e2	0.022274438
77	0x3b839a3d	0.0040161894
78	0xba81f56d	-0.0009915062
79	0xbc8cbc56	-0.01717965
80	0x3ca48053	0.020080721
81	0xbc5c30ab	-0.013439338
82	0x3c1a5906	0.009420639
83	0xbc143edb	-0.009048189
84	0xbc1c9171	-0.00955616
85	0x3c30d055	0.010791858
86	0xbc52ef1b	-0.01287439
87	0x3ca33045	0.019920478
88	0xbcb43956	-0.021999996
89	0x3afca2a4	0.0019274545
90	0xbafb04f9	-0.0019151262
91	0x3cba867f	0.02276921
92	0x3d0f7b90	0.035029948
93	0x3ccad8d5	0.024761597
94	0x3b40debb	0.0029429633
95	0x3cd1b7d2	0.025600348
96	0x3c5654db	0.013081755
97	0xbca171e5	-0.01970763
98	0x3c82d735	0.01597176
99	0x3b87c8a5	0.0041437917
100	0xbcb2ee20	-0.021842062
101	0xbbdf8694	-0.006821463
102	0xbb869d90	-0.0041081384
103	0x3be986a1	0.0071266447
104	0x3c38b128	0.011272706
105	0x3a8fa732	0.0010959862
106	0x3c11fe20	0.008910686
107	0xbc341184	-0.010990504
108	0xbc60ab1e	-0.0137126725
109	0x3cf4e83c	0.029895894
110	0x3bacc68c	0.005272692
111	0x3ce4473f	0.027866004
112	0x3d0cf168	0.03440991
113	0x3cacec46	0.021108758
114	0x3c20b891	0.009809629
115	0x3cd163bd	0.025560254
116	0x3c5e5378	0.013569705
117	0x3b52c8a6	0.0032163053
118	0x3ce497d3	0.027904427
119	0x3c0fe6cf	0.008783056
120	0xbcdf3597	-0.027247233
121	0xbcb0aacc	-0.021565817
122	0xbcbef341	-0.023309352
123	0x3bb209b8	0.0054332875
124	0x3c275fa3	0.010215673
125	0x3a333b1d	0.00068371167
126	0xbb949d25	-0.0045353347
127	0x3c41644f	0.011803701
128	0x3caeaa9c	0.021321587
129	0x3ca0be77	0.01962207
130	0xbbd20741	-0.006409556
131	0x3c312db0	0.010814115
132	0x3cc5192d	0.024059856
133	0xbcae5c3e	-0.021284219
134	0x3cd9fe82	0.026610617
135	0xbcd4c398	-0.025972173
136	0xbb7fc2ec	-0.0039026095
137	0x3bdc19b5	0.0067169317
138	0x3b97ce3b	0.004632739
139	0x3ca779d9	0.020443844
140	0x3cc6e355	0.024278322
141	0x3c74a4db	0.014931883
142	0x3bd84532	0.0066000456
143	0x3b800a67	0.00390749
144	0x3b9a56ae	0.00471004
145	0x3bce20ea	0.0062905448
146	0x3c820ed8	0.015876219
147	0xbc5b99c6	-0.013403362
148	0x3cecf523	0.028925484
149	0xbc08154f	-0.008305862
150	0xbabb23c9	-0.0014277633
151	0x3cd89d5a	0.026442219
152	0xbb61b544	-0.0034440318
153	0x3b78dfde	0.0037975232
154	0x3af58fa9	0.0018734831
155	0x3b9b1610	0.0047328547
156	0xbc56c07e	-0.013107417
157	0x3d10fe66	0.035398863
158	0x3c4ac9a8	0.01237718
159	0xbc5d970d	-0.013524783
160	0xbbf33b5f	-0.007422849
161	0xbcef7c20	-0.029233992
162	0xbcdd9539	-0.027048694
163	0x3caea23f	0.0213176
164	0x3c020585	0.007935886
165	0xbcac0017	-0.020996137
166	0x3cd0d0fa	0.025490273
167	0xbc1f64bc	-0.009728607
168	0xbbb989c3	-0.0056621744
169	0xbcd81c27	-0.026380612
170	0x3c05776e	0.00814615
171	0xbc9cf566	-0.019159984
172	0x3cc5d3ff	0.02414894
173	0xbcab78c0	-0.020931602
174	0xbd318ac0	-0.043345213
175	0x3c9d3626	0.019190859
176	0xbbb5f9de	-0.005553468
177	0xbc289954	-0.0102904625
178	0xbc300081	-0.010742308
179	0xbd07e434	-0.033176616
180	0xbc5beb5a	-0.013422811
181	0x3c7e7184	0.015529994
182	0x3c722e58	0.014781557
183	0x3caceda9	0.021109419
184	0x3b7686a0	0.0037616864
185	0x3b14e188	0.0022717435
186	0x3b97aef4	0.0046290103
187	0x3cb20d66	0.021734904
188	0xbc62c529	-0.013840952
189	0xbbee2dfe	-0.0072686663
190	0xbc252de7	-0.010081745
191	0x3bc0f666	0.005888748
192	0x3c769cd8	0.015052043
193	0xbcf15690	-0.029460222
194	0xbb696881	-0.0035615268
195	0xbcaaa73b	-0.020831695
196	0xbc0bb80f	-0.00852777
197	0x3c1d38f1	0.009596095
198	0xbc0a9b40	-0.008459866
199	0x3bd714f4	0.006563777
200	0xbb15e544	-0.0022872249
201	0xbce5b1df	-0.028038917
202	0xbc718c2f	-0.014742895
203	0x3cb19f2a	0.02168234
204	0x3c8d768a	0.017268438
205	0x3ce243d2	0.02762023
206	0xbc6e2671	-0.014535532
207	0xbb1edcdd	-0.0024240531
208	0x3c42d368	0.0118912235
209	0xbca1176f	-0.019664494
210	0x3c8532b6	0.016259532
211	0x3c9dacc0	0.019247413
212	0xbc07a6ef	-0.008279546
213	0x3c035a55	0.008017142
214	0xba151621	-0.00056871964
215	0xbcf3d710	-0.029765636
216	0x3bfd3ea2	0.0077284137
217	0xbc873ebe	-0.01650941
218	0xbccbd708	-0.024882808
219	0xbd008e2e	-0.031385593
220	0x3cc1fd79	0.023680435
221	0x3c978e6a	0.018500526
222	0x3ca0d64b	0.019633433
223	0xba52e262	-0.0008044598
224	0xbbe6b139	-0.0070401696
225	0x3cfe4e8a	0.03104331
226	0x3c325c12	0.010886209
227	0xbc7f1153	-0.015568095
228	0xba8952c6	-0.0010476939
229	0xbc4470ec	-0.011989813
230	0x3c931f58	0.017959282
231	0x3ca212ed	0.019784415
232	0xbcc1af7e	-0.023643252
233	0xbd3caa34	-0.046060756
234	0x3c18d2fc	0.009327646
235	0x3bb1738c	0.0054153856
236	0x3b96ff84	0.0046080966
237	0xbc24b969	-0.010053971
238	0xbba904cb	-0.005158042
239	0x3c5f9403	0.013646129
240	0x3d00117b	0.03126667
241	0x3ca02317	0.019547982
242	0x3c17fb54	0.00927623
243	0xbbc49757	-0.0059994864
244	0x3c0d8c4c	0.008639406
245	0x3cbf81ed	0.023377383
246	0x3c8b96d5	0.017039696
247	0x3c8c06e0	0.017093122
248	0xbce2eb53	-0.027700102
249	0xbbb0b164	-0.0053922404
250	0xbbbbaa6a	-0.005727102
251	0xbc9f7ebd	-0.019469613
252	0xbc1d957d	-0.00961816
253	0x3ab022b6	0.0013438079
254	0xbd25d37a	-0.040484883
255	0xbd5903a6	-0.052981995

shared_layers.0.bias f4 [128]
0	0xbba90ee6	-0.0051592467
1	0x3d387bd9	0.045039985
2	0xbbf9649d	-0.007610871
3	0xbc1711b9	-0.009220534
4	0xbbedf4e0	-0.0072618574
5	0xbc104b13	-0.008806962
6	0x3a9f320c	0.0012145652
7	0xbc976ea2	-0.018485371
8	0x3ca7ab5a	0.020467449
9	0xbc143e90	-0.009048119
10	0x3ca23c1b	0.019804051
11	0x3c9b7103	0.018974787
12	0xbc69a2f9	-0.014260047
13	0x3c5cd41a	0.013478303
14	0xbc8e01e2	-0.017334882
15	0x3cab39c9	0.020901578
16	0x3cd723e6	0.026262235
17	0xbc31b0a0	-0.010845333
18	0xbb6deae4	-0.0036303336
19	0x3ca4b3b4	0.02010522
20	0x3d6b0af2	0.057383485
21	0x3c691a5d	0.014227477
22	0x3d6ea18f	0.058259543
23	0xbc00edc7	-0.007869191
24	0xbbc883f1	-0.0061192443
25	0xbc81c349	-0.01584019
26	0x3cd61ab6	0.026135784
27	0x3c42746e	0.011868579
28	0x3d304bcf	0.043041047
29	0xbc9f41ce	-0.019440558
30	0xbc4dd966	-0.012564039
31	0xbd463989	-0.048394714
32	0xb9cb8d6c	-0.00038824545
33	0xbba0406e	-0.004890493
34	0x3ca8e97d	0.020619148
35	0x3c2995f4	0.010350693
36	0x3a9865b9	0.0011626995
37	0x3b8db48a	0.0043245004
38	0xbc01f282	-0.0079313535
39	0x3d1f879b	0.038947683
40	0x3d2391db	0.03993402
41	0x3ce4fbfc	0.027952187
42	0x3b391e4d	0.002824682
43	0x3c51b8c0	0.0128003955
44	0x3cd56b68	0.026052192
45	0xbd0c8370	-0.034305036
46	0x3b93fd4a	0.0045162784
47	0x3c4a539a	0.012349034
48	0xbb438198	-0.0029831883
49	0x3c4aa4de	0.012368409
50	0x3bbfe814	0.0058565233
51	0xbba76d4e	-0.0051094657
52	0xbbbb68f5	-0.005719299
53	0xbc8898df	-0.016674457
54	0x3cd90eae	0.026496258
55	0x3af9a970	0.0019047689
56	0x3c966f66	0.018363666
57	0xbcaec9e3	-0.021336501
58	0xbc377c9f	-0.011199146
59	0xbc4d3148	-0.012523957
60	0xbc6eef80	-0.014583468
61	0x3d18371d	0.037161935
62	0xbb573a15	-0.0032841016
63	0x3be46dee	0.0069711125
64	0x3d59c1a8	0.0531632
65	0x3cb2781f	0.021785794
66	0xbc0c695d	-0.008570042
67	0x3d1ab2d8	0.037768215
68	0xbbc9270d	-0.0061386884
69	0x3bc48e41	0.0059984033
70	0x3cff98c5	0.031200776
71	0x3cfcc830	0.030857176
72	0x3c5591ac	0.013035219
73	0x3d2b5d15	0.041836817
74	0x3d6d30e0	0.05790794
75	0xbb8d40d7	-0.004310708
76	0x3c711982	0.014715554
77	0x3c81d41d	0.015848214
78	0x3d02154b	0.031758588
79	0xbcf8f1be	-0.03038871
80	0xbb74ed50	-0.0037372895
81	0x3cdc9351	0.026925715
82	0x3c858759	0.01629989
83	0x3cc9605b	0.024582079
84	0x3d1739bd	0.036920298
85	0x3c3e61e5	0.01162002
86	0xbcb45315	-0.022012273
87	0xbc9f47cd	-0.019443417
88	0xbcbb6f9e	-0.022880372
89	0x3acaa2a4	0.0015459848
90	0x3cada63b	0.021197429
91	0x3d5190e2	0.05116356
92	0x3ce7e3e7	0.028306914
93	0x3c34e1a6	0.011040127
94	0x3c873498	0.01650457
95	0x3c1ec277	0.009689919
96	0x3cedc1e4	0.029023118
97	0x3c9fe1f3	0.01951692
98	0x3cdd454d	0.027010584
99	0x3ca26eb2	0.019828174
100	0x3cddcf21	0.027076306
101	0x3bca45c5	0.006172868
102	0x3aa61376	0.0012670595
103	0xbaa783d8	-0.0012780381
104	0xbca4cdb5	-0.02011762
105	0xbacb2654	-0.0015499094
106	0xbab7b629	-0.001401608
107	0x3ced599f	0.028973399
108	0x39b8b45d	0.00035229596
109	0x3c7f9830	0.015600249
110	0x3cac8728	0.021060541
111	0x3c8ba0cc	0.017044447
112	0x3cdab55c	0.026697807
113	0x3c8f7df9	0.017516123
114	0x3d4f3918	0.05059156
115	0x3c85ebc6	0.016347777
116	0xbc8b72fe	-0.017022606
117	0xbbb48171	-0.0055085947
118	0x3cc0d20e	0.023537662
119	0xbc58762d	-0.013211769
120	0x3b9730e3	0.004613982
121	0xbca7f525	-0.020502636
122	0xbc047246	-0.008083886
123	0xbc5dcb9c	-0.013537314
124	0xbc3f3f75	-0.011672844
125	0x3c26282d	0.010141415
126	0x3cb72b5a	0.022359539
127	0xbc72f97e	-0.014829991

shared_layers.2.weight f4 [128, 128]
0	0x3d1db0b2	0.038498588
1	0xbd966868	-0.07344133
2	0x3da153d3	0.07877316
3	0xbd90f7a2	-0.07078482
4	0xbd0c6b02	-0.034281738
5	0x3d83d7a8	0.064376175
6	0xbcde7bfd	-0.027158732
7	0x3c2cb468	0.010541059
8	0x3dac9f44	0.08428815
9	0x3c86f4db	0.016474178
10	0x3c94b90c	0.018154643
11	0x3cd49cca	0.02595367
12	0xbd1399a9	-0.036035214
13	0xbd4af1f5	-0.049547154
14	0x3dbdd2f9	0.092687555
15	0xbc6bbafd	-0.014387843
16	0x3de4a146	0.11163573
17	0xbcdf2018	-0.027236983
18	0x3da927aa	0.082595184
19	0x3d1a1b3e	0.037623636
20	0xbd97ee82	-0.07418539
21	0x3a0569e2	0.0005089325
22	0xbd5be927	-0.05368915
23	0x3ddca362	0.1077335
24	0x3daa8431	0.08325995
25	0x3df088f0	0.11744869
26	0x3d6272c8	0.055285245
27	0xbc83995a	-0.016064335
28	0xbd53d138	-0.0517132
29	0x3c2b5587	0.010457403
30	0xbbb90f66	-0.0056475876
31	0x3dd63c95	0.10460774
32	0xbd4f3060	-0.050583243
33	0xbd48f16c	-0.049058363
34	0xbc7a7b5f	-0.015288203
35	0xbd15384e	-0.03643065
36	0x3de39641	0.11112643
37	0xbc1792da	-0.009251321
38	0x3c26077e	0.010133622
39	0x3d835a23	0.064136766
40	0x3ba505e0	0.0050361007
41	0x3dcef6de	0.1010568
42	0xbcd56668	-0.026049808
43	0xbd428dbf	-0.04749846
44	0xbd0eee20	-0.034895062
45	0xbd5fc842	-0.05463434
46	0xbc43cdb8	-0.011950903
47	0x3d4a1f31	0.049346153
48	0x3cfc3a8b	0.030789634
49	0xbc88c1a1	-0.016693892
50	0x3d71589a	0.058922388
51	0x3dbacf41	0.09121562
52	0xbd4292d0	-0.047503293
53	0x3d97736b	0.07395061
54	0x3d3ad10b	0.045609515
55	0x3d92ea8e	0.07173644
56	0xbd0874ac	-0.033314392
57	0x3d046802	0.032325752
58	0x3d8971bf	0.067111485
59	0x3d525092	0.05134637
60	0xbba4574d	-0.00501529
61	0xbda04a2e	-0.07826649
62	0x3d46b78e	0.048514895
63	0xbd0171fc	-0.031602845
64	0x3d4b0f45	0.04957511
65	0xbd9c2609	-0.07624442
66	0x3d49944f	0.049213704
67	0xbcf3cd2e	-0.029760923
68	0xbdac7920	-0.0842154
69	0x3d491e9c	0.049101457
70	0xbd4a1d6d	-0.04934447
71	0x3dd44d09	0.10366256
72	0x3d6edbf6	0.05831524
73	0xbd588035	-0.052856643
74	0x3cc737b1	0.024318548
75	0x3d7ba4e0	0.061436534
76	0xbd12984d	-0.035789777
77	0xbc8f0f56	-0.017463367
78	0xbd17ed5a	-0.03709159
79	0x3d972aa2	0.073811784
80	0x3c55031b	0.013001229
81	0xbd898518	-0.06714839
82	0x38599537	5.18758e-05
83	0xbc454ce7	-0.012042261
84	0xbd907b20	-0.07054734
85	0xbca367a0	-0.019946873
86	0x3d691092	0.05690057
87	0x3ca91718	0.020640895
88	0x3dc35a93	0.0953876
89	0x3d6ff252	0.058580704
90	0x3d37f736	0.044913493
91	0xbcd18e29	-0.025580483
92	0xbcca172c	-0.024669252
93	0x3d3d19c3	0.046167146
94	0xbd94e63f	-0.072704785
95	0xbc813e0f	-0.015776662
96	0x3d9e2ad9	0.07723016
97	0xbc4bc6a4	-0.012437496
98	0x3dbe6dd3	0.09298291
99	0x3d552cc7	0.052044656
100	0x3dbe8b9f	0.09303974
101	0x3bb8ee99	0.0056436774
102	0x3c9d1ca1	0.01917869
103	0x3d77896b	0.060433786
104	0x3d7aef79	0.061263535
105	0xbd9018f6	-0.07036011
106	0xbc7cdd00	-0.01543355
107	0x3d92640e	0.0714799
108	0xbcf07451	-0.029352339
109	0xbcc7dcaa	-0.024397213
110	0x3a302e5f	0.0006720777
111	0x3caa2c4b	0.020773074
112	0xbc647e98	-0.013946198
113	0xbcf14dc8	-0.029456034
114	0x3da8bcc7	0.082391314
115	0xb8856def	-6.362411e-05
116	0x3c427585	0.011868839
117	0x3cfadc78	0.030622706
118	0x3c482187	0.012215025
119	0x3bec64ca	0.0072141634
120	0x3d45d0ef	0.048294958
121	0x3ddac0b0	0.106812835
122	0x3c5a6768	0.013330318
123	0xbd025826	-0.031822346
124	0x3d93ccbc	0.07216784
125	0xbd430756	-0.047614418
126	0x3d2224b9	0.039585803
127	0xbd08de6e	-0.03341525
128	0xbc94ca4d	-0.01816287
129	0xbd570155	-0.052491505
130	0x3d56216b	0.052277964
131	0xbc3bcabd	-0.011461911
132	0xbd8794ca	-0.06620176
133	0xbd2d804f	-0.042358693
134	0x3cd73588	0.026270643
135	0xbd8ffd6b	-0.070307575
136	0xbd9c0dd1	-0.07619823
137	0xbc83a2e6	-0.016068887
138	0xbd69ce66	-0.057081603
139	0xbcf8e88d	-0.030384326
140	0xbd946a45	-0.07246832
141	0xbd411bad	-0.047145534
142	0x3c52d46c	0.012868028
143	0x3da7b530	0.08188856
144	0x3c972c9c	0.018453889
145	0x3cf9b316	0.030480903
146	0x3c310f86	0.010806924
147	0x3d87ffb3	0.06640568
148	0x3d14376d	0.03618567
149	0xbc9d52b2	-0.019204471
150	0xbdbc21b3	-0.09186115
151	0xbc3a9f1c	-0.011390474
152	0xb8c668d0	-9.4608986e-05
153	0xbcd752a2	-0.02628452
154	0xbd7edba4	-0.062221184
155	0xbd129e3c	-0.035795435
156	0x3ca44c59	0.020055937
157	0xbbad9260	-0.0052969903
158	0xbca7cdb1	-0.020483823
159	0x3d8afff2	0.06787099
160	0xbc91df6a	-0.017806727
161	0xbd1e1abf	-0.038599726
162	0xbd39c651	-0.045355145
163	0x3d90be66	0.070675656
164	0xbd09c633	-0.033636283
165	0x3cd21143	0.025642997
166	0x3c9068ba	0.017628063
167	0x3c7b0e9d	0.015323308
168	0x3d671825	0.05641951
169	0xbb8d1bc1	-0.004306287
170	0x3da99788	0.082808554
171	0x3d68ecdc	0.05686651
172	0x3d8d8b78	0.06911367
173	0x3d5514a9	0.052021656
174	0x3dabd0a4	0.083894044
175	0xbd852fca	-0.06503256
176	0xbc38ffe2	-0.011291476
177	0x3cb0c905	0.021580229
178	0xba90c14b	-0.0011043934
179	0x3da4785b	0.080307685
180	0xbd60f1ab	-0.054917973
181	0xbc50b39d	-0.012738136
182	0x3d94be24	0.07262829
183	0x3d89b253	0.06723466
184	0xbc9b717f	-0.018975018
185	0xbd98697c	-0.074419945
186	0xbd8b1c71	-0.06792534
187	0x3cffaf3b	0.031211486
188	0xbd9191be	-0.07107876
189	0xbc085080	-0.008319974
190	0x3d670400	0.0564003
191	0xbd946673	-0.07246103
192	0x3c04afe9	0.008098581
193	0xbd997273	-0.074925326
194	0x3c2eb200	0.010662556
195	0xbd99b1d1	-0.07504619
196	0x3d8cc52e	0.068735465
197	0x3bf08d31	0.00734105
198	0x3d020014	0.031738356
199	0xbc863459	-0.016382383
200	0x3dae6bd1	0.08516658
201	0xbc89f691	-0.016841205
202	0xbd1fd12b	-0.039017837
203	0xbda2591d	-0.07927153
204	0xbb2e9d60	-0.0026644096
205	0x3c9d01d5	0.019165913
206	0x3d347470	0.044056356
207	0xbd92673b	-0.07148596
208	0xbc8d0753	-0.017215407
209	0x3d28c0b4	0.0411994
210	0xbc8ed225	-0.01743419
211	0xbd8f13a9	-0.06986172
212	0x3c56ddec	0.013114434
213	0xbd5f761f	-0.05455601
214	0x3d3dee9c	0.046370134
215	0xbd9dc876	-0.077042505
216	0xbd035013	-0.032058787
217	0xbd64a06b	-0.05581705
218	0x3d3626e2	0.044470675
219	0xbd3b6c88	-0.0457578
220	0xbcd5b0d1	-0.02608529
221	0x3d1be19b	0.03805695
222	0xbd91b1ef	-0.07114016
223	0x3da6bfb5	0.08142034
224	0x3d6aeb36	0.05735322
225	0xbd688d51	-0.056775395
226	0xbd8356f9	-0.06413073
227	0x3d0b4c48	0.034008294
228	0xbdab0c0c	-0.08351907
229	0x3d8863bb	0.06659647
230	0xbd8a16b9	-0.06742615
231	0xbb428af0	-0.0029684864
232	0x3d4878ca	0.04894332
233	0x3ccfeb07	0.025380624
234	0xbc1881c5	-0.009308283
235	0x3d3fc9db	0.046823364
236	0xbc89f135	-0.01683865
237	0x3cc9ea88	0.024647966
238	0xbb9ceb00	-0.0047887564
239	0xbca4ec09	-0.020132082
240	0x3d11a548	0.035558015
241	0x3d07e638	0.033178538
242	0xbd9a9d5a	-0.07549544
243	0x3d9afe11	0.075679906
244	0xbda701c7	-0.08154636
245	0x3d224623	0.03961767
246	0xbd868adb	-0.06569453
247	0x3d8f269b	0.06989785
248	0xbd783ae8	-0.060603052
249	0xbd297a84	-0.041376606
250	0xbcfd65a0	-0.030932248
251	0xbd78cc60	-0.060741782
252	0x3a5fba07	0.0008534495
253	0x3d9d929a	0.07693978
254	0x3b673eb6	0.0035285181
255	0xbade4cca	-0.0016960141

shared_layers.2.bias f4 [128]
0	0x3ddfbaaa	0.10924275
1	0xbd788a03	-0.060678493
2	0xbcedf3df	-0.02904695
3	0x3d6fd593	0.05855329
4	0x3c909023	0.017646855
5	0xbd8f0d25	-0.06984929
6	0x3dac7c73	0.08422174
7	0xbc0d5c62	-0.008627983
8	0x3d279773	0.040915918
9	0xbcbdabc3	-0.023153191
10	0xbcbe4f22	-0.023231093
11	0x3dbe3d69	0.09289057
12	0x3d2f64ce	0.042820744
13	0x3da07187	0.078341536
14	0x3c690aea	0.0142237935
15	0x3d5b8091	0.053589407
16	0xbbe915f7	-0.007113214
17	0xbd89ab59	-0.06722135
18	0xbd9970d3	-0.07492223
19	0xbc585824	-0.013204608
20	0xbd8e91fe	-0.069614395
21	0x3da3b079	0.07992644
22	0x3da15432	0.07877387
23	0x3d9a5027	0.07534819
24	0x3d62d664	0.05538024
25	0xbd579426	-0.05263152
26	0x3c9f8c01	0.019475939
27	0x3d795f96	0.060882173
28	0x3cd65795	0.02616481
29	0x3d487902	0.048943527
30	0x3dc0a962	0.09407307
31	0x3d0b7389	0.03404573
32	0x3d94bc61	0.07262493
33	0x3d8b3397	0.06796949
34	0xbdacc11d	-0.08435271
35	0x3d9d933d	0.07694099
36	0xbdb1d811	-0.086837895
37	0x3d7a03d0	0.061038792
38	0x3d953286	0.07285027
39	0x3cdb4602	0.02676678
40	0xbd0aa973	-0.033853006
41	0xbd5af878	-0.053459615
42	0xbd499532	-0.04921455
43	0x3cbdea6c	0.02318307
44	0xbd3334a8	-0.04375139
45	0x3dc1dbd4	0.09465757
46	0x3c114ae2	0.008867951
47	0x3ce9befb	0.02853345
48	0xbd68e7fc	-0.056861863
49	0x3d46027d	0.048342217
50	0xbd9daa2d	-0.07698474
51	0xbb2dfae7	-0.0026547255
52	0xbda1800e	-0.078857526
53	0xbd8ad3f8	-0.06778711
54	0xbd349e92	-0.044096537
55	0x3d28de00	0.04122734
56	0xbdb3db13	-0.087820195
57	0xbcf5a081	-0.02998376
58	0xbbc44031	-0.0059890975
59	0xbdba2a63	-0.09090116
60	0xbcd1eb08	-0.025624767
61	0x3d7bf5d0	0.061513722
62	0x3d72da5e	0.059290282
63	0x3c8d5e97	0.017257018
64	0xbd9b4d9c	-0.07583162
65	0x3db4399b	0.0880005
66	0xbcb7cd9c	-0.02243691
67	0xbd6f89cc	-0.058481023
68	0xbdc3b2e0	-0.09555602
69	0x3ce0f001	0.027458193
70	0xbd5815ad	-0.052755047
71	0xbc580e0d	-0.013186944
72	0x3d065346	0.03279426
73	0x3db4cb4e	0.0882784
74	0x3d94531a	0.07242413
75	0xbdaa1628	-0.08305007
76	0x3d96b714	0.07359138
77	0x3d0bab09	0.03409866
78	0x3db459cc	0.0880619
79	0xbb17df85	-0.0023174
80	0x3c9dc7b7	0.01926027
81	0x3d11d0b2	0.035599418
82	0x3d0abd68	0.033872038
83	0x3ca41067	0.020027352
84	0x3b8cca5d	0.0042965845
85	0x3d2db836	0.042412005
86	0x3cad5bc5	0.021161923
87	0x3da5724b	0.0807844
88	0xbd8b078b	-0.06788548
89	0x3c2bf7ef	0.010496124
90	0x3b801834	0.0039091352
91	0xbdb1ef5b	-0.086882316
92	0x3b950cca	0.0045486437
93	0x3dbc5128	0.09195167
94	0x3d17286f	0.036903795
95	0xbdc43bdf	-0.09581732
96	0x3d3aff68	0.04565373
97	0xbd22ac0d	-0.03971486
98	0x3d7c9b42	0.061671503
99	0x3da1162c	0.07865557
100	0xbd3669fd	-0.044534672
101	0x3d0dfe69	0.034666453
102	0xbda7b5d4	-0.08188978
103	0xbd900d46	-0.07033782
104	0xbc6e91f1	-0.014561162
105	0x3c00de8c	0.007865559
106	0x3d412c0a	0.04716114
107	0xbc3eab63	-0.011637541
108	0x3bf42776	0.007450993
109	0xbd3bf7f0	-0.04589075
110	0xbcb014af	-0.021494238
111	0x3be7c4a5	0.0070730024
112	0xbda5797b	-0.08079811
113	0x3d9f6378	0.07782644
114	0x3d6cf639	0.057852004
115	0x3cebd694	0.028788842
116	0x3d68881e	0.056770436
117	0x3de97d6c	0.114008754
118	0x3bb6c628	0.0055778213
119	0x3db5926e	0.0886582
120	0xbce9103b	-0.028450122
121	0x3cb29758	0.021800682
122	0x3db5ddc7	0.08880191
123	0x3da79520	0.0818274
124	0x3dc2a9f6	0.09505074
125	0x3d95b6db	0.073102675
126	0x3dacf3a0	0.08444905
127	0x3d936758	0.07197446

actor.weight f4 [5, 128]
0	0xbdfb8828	-0.12281829
1	0xb9992921	-0.00029213078
2	0xbd1080f1	-0.035279218
3	0xbde24549	-0.11048371
4	0x3d10c916	0.03534802
5	0x3d8b7aa7	0.068105035
6	0xbddcbf0c	-0.10778627
7	0xbd46b722	-0.048514493
8	0xbb7e83f0	-0.0038835965
9	0xbcc6fdd4	-0.024290957
10	0xbdb46a40	-0.08809328
11	0xbc1bf215	-0.009518166
12	0xbd8366a1	-0.06416059
13	0xbd012523	-0.031529557
14	0xbcd0fb15	-0.02551035
15	0xbda16dca	-0.07882269
16	0x3d40fa46	0.04711368
17	0xbd755514	-0.05989559
18	0x3ccc37a4	0.024928875
19	0xbe162741	-0.14663412
20	0x3ca86573	0.020556187
21	0xbdad0e48	-0.084499896
22	0xbc4fcef1	-0.012683616
23	0x3bd086cb	0.006363725
24	0xbdcb9fa3	-0.09942558
25	0x3d059848	0.03261593
26	0x3ccdcac8	0.025121108
27	0x3d2e0b44	0.042491212
28	0xbd60eb3e	-0.054911844
29	0x3d8507d6	0.06495635
30	0xbd64ebd9	-0.055888984
31	0xbdd21d24	-0.102594644
32	0x3d076fe7	0.033065703
33	0x3d0e06b8	0.034674376
34	0xbce9fed8	-0.028563902
35	0xbd4931b5	-0.04911967
36	0x3bdc0b80	0.006715238
37	0xbcdc3a09	-0.026883142
38	0xbdce8403	-0.10083773
39	0xbd04622a	-0.03232018
40	0xbde97afe	-0.11400412
41	0xbdd47dae	-0.10375534
42	0xbe24e5ff	-0.16103362
43	0xbd5d0383	-0.053958427
44	0x3cd4c99a	0.025975037
45	0xbd50852d	-0.050908256
46	0x3ca6b333	0.02034912
47	0xbdbdd288	-0.09268671
48	0xbdcb2d68	-0.0992077
49	0x3c74575c	0.014913406
50	0x3da28a04	0.07936481
51	0xbdbede52	-0.09319748
52	0xbcddd6d8	-0.027079985
53	0xbd36cfca	-0.044631757
54	0xbd036300	-0.032076836
55	0xbd103b65	-0.035212893
56	0x3d63ed15	0.05564602
57	0x3b7b0352	0.003830154
58	0x3d8386a4	0.06422165
59	0xbd4083f0	-0.047000825
60	0xbc78f253	-0.015194493
61	0xbce8ae42	-0.028403405
62	0xbc981811	-0.018566163
63	0xbdd2be54	-0.102902085
64	0x3d8f6da5	0.07003335
65	0x3d64a251	0.05581886
66	0xbda63f9c	-0.08117601
67	0x3d23e7ae	0.04001587
68	0xbd21e920	-0.039528966
69	0x3d05a42e	0.032627277
70	0xbddfd37f	-0.109290116
71	0xbda67dfc	-0.08129498
72	0xbb919021	-0.0044422303
73	0xbd2298fb	-0.039696675
74	0xbd2a3ece	-0.0415638
75	0x3d7a989a	0.06118069
76	0xbde7337e	-0.11289118
77	0xbde930f1	-0.11386288
78	0x3c439b20	0.01193884
79	0xbdec3610	-0.11533749
80	0x3d1ca68c	0.03824477
81	0x3d450d07	0.048108127
82	0xbd2af161	-0.041734103
83	0x3cfb6965	0.030689904
84	0xbe041a71	-0.12900712
85	0xbe13526d	-0.14386912
86	0x3d0c0e29	0.03419319
87	0x3c16ab01	0.009196044
88	0x3d84c99e	0.06483768
89	0xbdf8ee77	-0.121548586
90	0xbd61ffc3	-0.055175554
91	0x3cd204ae	0.025636997
92	0xbd81af4b	-0.063322626
93	0xbd11dce6	-0.035611056
94	0xbdd55f46	-0.104185626
95	0xbd825567	-0.063639455
96	0x3c8a638b	0.016893169
97	0x3c239b94	0.009985823
98	0x3c9415c6	0.018076789
99	0x3d0df574	0.03465791
100	0xbd9a37f4	-0.075302035
101	0x3c0c87bd	0.008577284
102	0x3d060b30	0.032725513
103	0x3d86f3f8	0.06589502
104	0xbd8107d0	-0.06300318
105	0x3d2a2414	0.041538313
106	0x3c8bf43f	0.017084239
107	0xbd19144b	-0.03737287
108	0xbd8fee5d	-0.07027886
109	0x3cc4dd8c	0.024031423
110	0xbd2e81bb	-0.04260419
111	0x3d976fe9	0.07394392
112	0x3d0ea802	0.034828193
113	0x3d04ab35	0.03238984
114	0xbdd9048f	-0.105965726
115	0xbe182c88	-0.14860737
116	0x3c8a6078	0.016891703
117	0x3bc25b42	0.005931289
118	0xbd4dee84	-0.050276294
119	0xbdc6d4ce	-0.09708558
120	0x3c427aba	0.011870081
121	0xbd87c8d6	-0.06630103
122	0xbc0d7b31	-0.008635328
123	0xbdb594dd	-0.08866284
124	0x3b970a5c	0.004609389
125	0x3d24e633	0.040258598
126	0xbd35c51d	-0.044377435
127	0xbdcaf7ad	-0.09910522
128	0x3d99f6f2	0.07517804
129	0x3c873cc5	0.01650847
130	0xbddc4674	-0.10755625
131	0x3daa00bf	0.083009236
132	0xbd9bc02c	-0.07605013
133	0xbdc85582	-0.09781934
134	0x396216da	0.00021561552
135	0x3e702659	0.23452128
136	0xbd4e3816	-0.050346456
137	0xbdbd46a7	-0.092419915
138	0x3cc13fee	0.023590054
139	0xbd85e844	-0.06538442
140	0xbc82ae1a	-0.015952159
141	0x3d3fe6ac	0.046850845
142	0x3cd12ed8	0.025535032
143	0x3d13afac	0.036056206
144	0xbdc9d9d1	-0.09855998
145	0xbcf4cb55	-0.029882113
146	0x3d1984bc	0.0374801
147	0xbdadb29d	-0.084813334
148	0x3c8f9ca8	0.017530754
149	0xbcfc19f5	-0.030774096
150	0x3b90de87	0.0044210586
151	0xbbe5a8a3	-0.0070086285
152	0x3d2c66a5	0.042090077
153	0xbd0ddb09	-0.034632716
154	0xbd1e0520	-0.038579106
155	0xbd7d8e8b	-0.061903518
156	0xbdd133d0	-0.102149606
157	0x3d92bc39	0.07164807
158	0xbd6662d0	-0.05624658
159	0x3ca48600	0.020083427
160	0x3ce9d81c	0.028545432
161	0xbcb14d1c	-0.021643214
162	0xbd5245d3	-0.05133612
163	0x3d2005bd	0.039067972
164	0x3ce4a997	0.027912898
165	0x3d8ba35c	0.06818268
166	0xbd58a85b	-0.05289493
167	0x3d818a4f	0.063252084
168	0xbddf228d	-0.10895262
169	0xbd325225	-0.04353537
170	0xbe4b86b9	-0.19875611
171	0xbc592d47	-0.013255424
172	0xbd20a3b2	-0.039218612
173	0xbd8e8dbc	-0.069606274
174	0x3d3f05e4	0.046636477
175	0x3d414979	0.04718921
176	0xbda80849	-0.08204705
177	0xbdc0f5f5	-0.094219126
178	0x3bb0ab11	0.0053914865
179	0xbdee3562	-0.11631276
180	0xbda46d66	-0.080286786
181	0xbd26ea2f	-0.04075068
182	0xbd92ab67	-0.07161599
183	0xbcd3cf64	-0.025855727
184	0xbc1b9d86	-0.009498006
185	0xba355215	-0.0006916833
186	0xbe2eb8e2	-0.17062715
187	0xbcbf9396	-0.023385804
188	0x3d98cec2	0.07461311
189	0xbd90a2e6	-0.070623204
190	0xbb77dd1b	-0.0037820998
191	0xbdff5c3e	-0.12468766
192	0x3d78fec6	0.060789846
193	0x3dd84eca	0.10561903
194	0xbd271b3e	-0.040797465
195	0x3c9f6de2	0.019461576
196	0x3d5f1db9	0.054471705
197	0xbddb79b8	-0.107165754
198	0xbcba0cf5	-0.022711257
199	0xbe22f459	-0.15913524
200	0x3dbffe7f	0.09374713
201	0x3d19dd08	0.037564307
202	0x3ca36667	0.01994629
203	0xbd059bdb	-0.03261934
204	0x3d950d8d	0.07277975
205	0xbdb4caca	-0.088277414
206	0xbc5be831	-0.013422058
207	0xbd0dcedf	-0.034621116
208	0x3d385245	0.045000333
209	0xbcdaf48e	-0.02672794
210	0xbd51cbfd	-0.05121993
211	0xbd363511	-0.0444842
212	0x3d306472	0.043064542
213	0xbda8a9df	-0.08235525
214	0xbd8db0c8	-0.06918484
215	0x3d7087ac	0.058723137
216	0x3d28a06e	0.041168623
217	0xbd93f8df	-0.07225203
218	0xbd182b3a	-0.0371506
219	0xbcd8ff9d	-0.026489073
220	0x3c653bab	0.013991277
221	0xbd94786a	-0.0724953
222	0xbdb3a8b3	-0.08772411
223	0xbda95415	-0.082679905
224	0x3d57e42d	0.05270784
225	0xbd9c7428	-0.076393425
226	0xbc8400bf	-0.016113637
227	0xbc9298ec	-0.017895184
228	0x3d9cdd61	0.07659412
229	0xbdb33812	-0.08750929
230	0x3d9f9ddb	0.077937804
231	0x3c4abca3	0.012374076
232	0xbde8ba25	-0.11363629
233	0x3b379f3e	0.00280185
234	0x3d65f168	0.056138426
235	0xbc73f6b2	-0.01489036
236	0x3d0f0241	0.03491426
237	0xbd9a8624	-0.075451165
238	0xbda45c16	-0.080253765
239	0x3cd12b18	0.025533244
240	0xbd9d337d	-0.07675836
241	0xbd5265be	-0.05136656
242	0x3d89619e	0.06708072
243	0xbe05704b	-0.13031118
244	0xbda4ef74	-0.080534846
245	0x3dc8f850	0.09812987
246	0xbdc40530	-0.09571302
247	0x3d3396ac	0.043844864
248	0xba0a081a	-0.00052654895
249	0x3df21a07	0.118213706
250	0xbe1c4c1c	-0.15263408
251	0xbd507d00	-0.05090046
252	0xbc8ef3a5	-0.017450163
253	0x3dc29d27	0.09502631
254	0xbdbd70e5	-0.092500485
255	0xbd0ff4b0	-0.03514546

actor.bias f4 [5]
0	0xbd290966	-0.04126873
1	0xbd12d5f4	-0.035848573
2	0x3daf7166	0.08566551
3	0xbdb57659	-0.08860464
4	0x3d9676d8	0.073468864

critic.weight f4 [1, 128]
0	0xbc4101de	-0.01178023
1	0xbd4b4988	-0.04963067
2	0xba948f27	-0.0011334167
3	0xbd9df1ec	-0.077121586
4	0x3dd23a8c	0.10265073
5	0xbb5e0f0b	-0.0033883478
6	0x3dbf426b	0.0933884
7	0xbcb85fc0	-0.022506595
8	0x3da19d6f	0.07891356
9	0x3d76159c	0.060079202
10	0x3dbae428	0.091255486
11	0xbcf1f7cd	-0.029537106
12	0x3d212ef0	0.039351404
13	0xbdc2f27f	-0.09518909
14	0xbd5cbb05	-0.053889293
15	0x3dcbebe5	0.09957103
16	0x3d30ad0f	0.04313379
17	0xbc8a9fee	-0.016921964
18	0xbdbdaf14	-0.09261909
19	0x3db84b4e	0.08998738
20	0x3cd62356	0.026139896
21	0xbda5c0ed	-0.08093438
22	0xbd379fe9	-0.044830237
23	0xbd1b8fbd	-0.037978876
24	0xbdb703ca	-0.089362696
25	0x3b21e086	0.0024700477
26	0x3de0d51f	0.109781496
27	0x3daf415f	0.085573904
28	0x3dd7010e	0.10498248
29	0xbd7aec7a	-0.061260678
30	0xbdb87437	-0.09006541
31	0x3d405e50	0.046964943
32	0xbd2ab5ca	-0.041677274
33	0xbdccce95	-0.1000034
34	0xba95f548	-0.0011440897
35	0xbdb4e477	-0.08832639
36	0xbd400cb1	-0.046887103
37	0xbd4188af	-0.047249492
38	0x3dbddd09	0.09270675
39	0xbd222bbb	-0.039592486
40	0x3db5b1c3	0.08871796
41	0x3d508ea7	0.050917294
42	0x3d8383bf	0.06421613
43	0x3d144790	0.03620106
44	0x3ddf67c0	0.109084606
45	0xbd5d09f2	-0.053964563
46	0x3d2501b9	0.040284846
47	0x3deab11c	0.11459562
48	0xbccd3ee8	-0.02505441
49	0x3dde4fee	0.10855089
50	0x3c194e56	0.009357056
51	0x3dad19d8	0.08452195
52	0x3c2f06df	0.010682791
53	0x3db065eb	0.08613189
54	0x3d5702df	0.052492972
55	0xbdc79822	-0.09745814
56	0xbd54fd9b	-0.05199967
57	0x3d22af37	0.03971788
58	0x3bd13492	0.0063844407
59	0x3b9d5f03	0.004802586
60	0xbd88d86a	-0.06681903
61	0xbde5ff88	-0.11230379
62	0xbd806345	-0.06268934
63	0xbdbb5465	-0.09146956
64	0xbd8c04e2	-0.06836869
65	0xbd507535	-0.050893027
66	0x3d2140f3	0.03936858
67	0x3ddea4be	0.10871266
68	0x3d05e675	0.032690484
69	0x3d715309	0.05891708
70	0x3d92efe2	0.0717466
71	0x3e0719eb	0.1319348
72	0xbd8b64a8	-0.06806308
73	0xbd903884	-0.070420295
74	0xbdda25f4	-0.1065177
75	0x3d903291	0.07040895
76	0xbdbd8744	-0.092543155
77	0x3d9b1192	0.07571711
78	0xbdbf5d26	-0.093439385
79	0xbcf27cce	-0.029600527
80	0xbde06cf3	-0.109582804
81	0xbdc3c126	-0.095583245
82	0xbd53547b	-0.05159424
83	0xbd4f11e4	-0.05055417
84	0xbdbf9d8f	-0.09356224
85	0x3c1da474	0.009621728
86	0x3dcd5f0d	0.10027895
87	0xbdb0e382	-0.08637144
88	0xbd856a2c	-0.06514391
89	0x3d7c948d	0.061665107
90	0xbdb6315c	-0.08896133
91	0xbc8099a2	-0.015698258
92	0xbdb9b4cb	-0.09067687
93	0xbdd100db	-0.10205241
94	0x3de703ad	0.11279998
95	0x3beba818	0.007191669
96	0x3d9823a4	0.07428673
97	0x3b438bb5	0.002983791
98	0x3ce56845	0.028003821
99	0x3d25d1bb	0.040483218
100	0xbda7c473	-0.081917666
101	0x3d82558c	0.06363973
102	0x3c78fb09	0.01519657
103	0x3d0cbc5d	0.034359325
104	0x3da89419	0.082313724
105	0xbd91c881	-0.07118321
106	0x3d092be3	0.03348912
107	0xbde322fc	-0.11090657
108	0xbc1a93ac	-0.009434622
109	0x3c7769d8	0.015100919
110	0x3d662cec	0.056195185
111	0xbd77da83	-0.060511123
112	0x3c1b59a1	0.009481818
113	0x3da0533c	0.07828376
114	0x3da5bbe9	0.08092482
115	0x3d764625	0.06012549
116	0x3da552df	0.08072447
117	0xbd4c7c88	-0.04992345
118	0xbdb9e7c3	-0.09077408
119	0xbd63e0c3	-0.05563427
120	0xbc7fa1a7	-0.015602506
121	0xbdeba22d	-0.11505542
122	0x3c8eeb80	0.01744628
123	0x3d73611c	0.059418783
124	0xbd366106	-0.044526123
125	0xbe013e92	-0.12621525
126	0xbca42c9a	-0.020040799
127	0x3d25b95c	0.040459976
