prey.pth (torch, 27754 bytes, 12 tensors)

fc1.weight f4 [64, 24]
0	0x3e1f89af	0.15579866
1	0x3f21f232	0.63260186
2	0x3fc08774	1.5041337
3	0x3f46b0cd	0.77613527
4	0x3f94a53d	1.1612927
5	0x3fb53a06	1.4158332
6	0x3f04e652	0.5191394
7	0x3f810ff3	1.0082992
8	0x3fae330c	1.3609328
9	0x3f0662fe	0.524948
10	0x3f9b69c2	1.214165
11	0x3fa41a50	1.282053
12	0xbca4926f	-0.020089356
13	0x3f25c467	0.6475281
14	0x3f9cf2e6	1.2261627
15	0x3f2b8c84	0.67011285
16	0x3fa9ff01	1.3280946
17	0x3f9f358e	1.2438219
18	0x3e6b4d86	0.22978792
19	0x3f0daeae	0.55344665
20	0x3fb4c6ab	1.4123129
21	0x3e8a5425	0.27017322
22	0x3f379568	0.7171235
23	0x3fa50408	1.2891855
24	0x3eb29e94	0.3488661
25	0x3ef0b075	0.47009626
26	0x3ed3be8b	0.4135631
27	0x3ebf9924	0.37421525
28	0x3e9fd5a3	0.3121768
29	0x3f0f1ea7	0.55906147
30	0x3f90cbea	1.131223
31	0x3ef2d033	0.47424468
32	0x3ee75bf3	0.4518734
33	0x3f28a88b	0.65882176
34	0x3ecfe938	0.4060762
35	0x3f2377ae	0.6385449
36	0x3f3c31fa	0.7351376
37	0x3f169a13	0.5882885
38	0x3e3ba4ec	0.18324631
39	0x3f2140ec	0.6298969
40	0x3ee674b1	0.45010903
41	0x3efc37ad	0.49261227
42	0x3f16d1fc	0.5891416
43	0x3f3106a6	0.6915077
44	0x3f288e22	0.6584188
45	0x3f394c00	0.7238159
46	0x3e0d8644	0.1382075
47	0x3ecea601	0.40361026
48	0xbd6eb8fc	-0.058281884
49	0xbe2241c9	-0.15845408
50	0xbe43605d	-0.19079728
51	0xbe47be67	-0.19506226
52	0x3e25be5c	0.16185898
53	0xbda307dd	-0.07960484
54	0x3da55458	0.08072728
55	0xbdd90859	-0.10597295
56	0xbda41514	-0.08011833
57	0x3d646668	0.055761725
58	0xbe25b0c6	-0.16180715
59	0x3dc28788	0.09498507
60	0x3e3fcbde	0.18730113
61	0xbe4cdf0f	-0.20006965
62	0x3e4615b2	0.19344214
63	0x3d28e5f4	0.041234925
64	0xbe06c44c	-0.13160819
65	0xbd822ed0	-0.06356585
66	0xbe124c5b	-0.1428694
67	0xbe08d64a	-0.13362995
68	0x3df81fc4	0.12115434
69	0x3e19ff50	0.150388
70	0x3e3e8552	0.18605545
71	0xbe13a8fc	-0.14419931
72	0xbe356583	-0.17714505
73	0x3f0a9ce5	0.5414565
74	0x3fabe1ea	1.3428319
75	0x3f30db9d	0.69085103
76	0x3f74febf	0.9570121
77	0x3fa275f8	1.2692251
78	0xbd86d6a4	-0.06583908
79	0x3f818c37	1.0120915
80	0x3f8e536f	1.1119212
81	0x3f04492d	0.5167416
82	0x3f965208	1.1743784
83	0x3f897fff	1.0742186
84	0x3de008bd	0.10939167
85	0x3f52373c	0.8211553
86	0x3f987f86	1.1913917
87	0x3f0371f7	0.5134577
88	0x3f886487	1.0655679
89	0x3f906fb7	1.1284093
90	0xbd89c48d	-0.06726942
91	0x3eb72192	0.357678
92	0x3f832d3f	1.0248183
93	0x3ebb79a1	0.36616233
94	0x3f50a141	0.81496054
95	0x3f9b9d55	1.2157389
96	0x3e0a0090	0.13476777
97	0xbc49add0	-0.012309507
98	0x3d72ae88	0.059248477
99	0xbda2de8a	-0.07952602
100	0x3d991d80	0.0747633
101	0xbe33d03e	-0.17559907
102	0xbdef5cd2	-0.11687626
103	0x3dd89c20	0.105766535
104	0xbe2c6eaf	-0.16839097
105	0xbe38d425	-0.18049677
106	0xbd504210	-0.050844252
107	0xbe042784	-0.12905699
108	0x3e312708	0.17300045
109	0xbe2651ff	-0.16242217
110	0xbc857ff0	-0.016296357
111	0xbe29a28e	-0.16565916
112	0xbdfce43c	-0.1234822
113	0x3c8de640	0.017321706
114	0x3d3cd510	0.04610163
115	0xbdc2130e	-0.09476291
116	0x3e03f36a	0.12885824
117	0x3dbc1880	0.091843605
118	0xbc78d140	-0.015186608
119	0x3d83d048	0.06436211
120	0xbd85abe4	-0.06526926
121	0x3f64a8f9	0.8932033
122	0x3fad7ca2	1.355366
123	0x3f02d669	0.51108414
124	0x3f90bfad	1.1308495
125	0x3fb05226	1.377507
126	0x3eefdcd1	0.46848157
127	0x3f462a2a	0.7740809
128	0x3fbb331c	1.4624972
129	0x3f251610	0.6448679
130	0x3fa436e4	1.2829251
131	0x3f9f856a	1.246259
132	0xbd9f1a29	-0.077686615
133	0x3f28e091	0.6596766
134	0x3fa44cd0	1.2835941
135	0x3f09b454	0.53790784
136	0x3f9e3394	1.235949
137	0x3fc7de4c	1.5614715
138	0x3e278ca9	0.16362251
139	0x3ee862de	0.4538793
140	0x3fc37a1c	1.527164
141	0x3eb1e2f4	0.34743464
142	0x3f8119e1	1.0086023
143	0x3fab2e8c	1.337358
144	0x3d4f0de9	0.050550375
145	0x3e005494	0.12532264
146	0xbe29aa38	-0.1656884
147	0xbe5630b6	-0.20917019
148	0xbe018bc7	-0.12650977
149	0x3dd7c273	0.10535135
150	0xbdef5048	-0.11685234
151	0xbd72f5ea	-0.059316553
152	0xbd7314c7	-0.059345987
153	0xbe636e1c	-0.22209972
154	0x3df532ca	0.11972578
155	0xbe27c762	-0.16384652
156	0x3ddaadf1	0.10677708
157	0x3e1e2190	0.1544249
158	0x3c985360	0.018594444
159	0x3e383b7a	0.17991439
160	0xbe366421	-0.17811634
161	0xbe202b3e	-0.15641496
162	0x3e188e6b	0.14898078
163	0xbd3e30af	-0.046433147
164	0x3d63515d	0.055497516
165	0xbe475ab8	-0.194682
166	0x3d9fb7d0	0.07798731
167	0x3b1807b3	0.0023197948
168	0xbd5bd83f	-0.053673025
169	0x3ed11f16	0.4084403
170	0x3fba2d1d	1.4545017
171	0x3f2ac3d7	0.6670508
172	0x3f810a1d	1.0081211
173	0x3f931ee9	1.1493808
174	0xbd084168	-0.0332655
175	0x3f64b36d	0.8933628
176	0x3fa4917d	1.28569
177	0x3f1d0ade	0.61344707
178	0x3f9d239d	1.2276493
179	0x3fa7c0db	1.310573
180	0xbdf0c702	-0.11756708
181	0x3f29cadd	0.6632517
182	0x3fa59219	1.293521
183	0x3f5bbcd5	0.8583501
184	0x3f8d179d	1.1022831
185	0x3faf373a	1.3688729
186	0x3e3e5889	0.18588461
187	0x3e0cfe68	0.13768923
188	0x3fae539e	1.3619268
189	0x3eb1741d	0.346589
190	0x3f5538ae	0.8328961
191	0x3fa7accf	1.3099612
192	0x3e1eae47	0.15496169
193	0xbcf9e77c	-0.030505888
194	0x3d00bc02	0.0314293
195	0xbc3e99f5	-0.011633386
196	0x3d09a092	0.033600397
197	0x3dd5980d	0.10429392
198	0xbe0d36a6	-0.13790378
199	0xbe235f33	-0.15954284
200	0xbe16647b	-0.14686768
201	0x3dc8f175	0.09811679
202	0x3d8dbb26	0.06920461
203	0xbd496a11	-0.04917342
204	0xbd6d659d	-0.057958234
205	0x3e2b1dd9	0.16710605
206	0xbd5cdf02	-0.053923614
207	0x3d0749e2	0.033029445
208	0xbe2a5087	-0.16632281
209	0x3e07a495	0.13246377
210	0x3ca5bbba	0.020231117
211	0xbe3013e2	-0.17195085
212	0xbe231433	-0.15925674
213	0xbdb9737e	-0.090552315
214	0xbdcba9d2	-0.099445
215	0xbe24eb7d	-0.16105457
216	0x3ea7d46d	0.32779256
217	0x3f4493ce	0.7678803
218	0x3fc8346c	1.5640998
219	0x3f31d4e3	0.69465464
220	0x3fa22d60	1.2670097
221	0x3fc41792	1.5319693
222	0x3e2ac1cd	0.16675492
223	0x3f5b1736	0.8558229
224	0x3fc179b1	1.5115262
225	0x3f482337	0.78178734
226	0x3fc29fcc	1.5205016
227	0x3f9d229e	1.2276189
228	0xbddbb48a	-0.107277945
229	0x3f5151cf	0.81765455
230	0x3f94fe6e	1.1640146
231	0x3f5c6b57	0.8610129
232	0x3fb25c42	1.3934405
233	0x3fcf3460	1.6187859
234	0x3e8addf7	0.2712247
235	0x3ecccc2f	0.3999953
236	0x3fcaaed8	1.5834608
237	0x3f1a381d	0.6024187
238	0x3f5ff2b0	0.87479687
239	0x3fa222c5	1.2666861
240	0x3e9fbc2b	0.31198248
241	0x3f583cf3	0.84468
242	0x3fac4100	1.3457336
243	0x3f437be7	0.76360935
244	0x3f98b63f	1.1930617
245	0x3fa75832	1.307379
246	0x3ea05d55	0.31321207
247	0x3f9425bd	1.1574017
248	0x3faa8cf8	1.332427
249	0x3ecb6676	0.3972661
250	0x3fc149d6	1.5100658
251	0x3fbce051	1.4755956
252	0xbde2b97a	-0.11070533
253	0x3f6da64e	0.92831886
254	0x3f8eae0a	1.1146863
255	0x3f448a57	0.7677359

fc1.bias f4 [64]
0	0x3fb05caf	1.3778285
1	0x3f150a4f	0.58218855
2	0xbe4e5389	-0.20149054
3	0x3fac64fc	1.3468318
4	0xbcaf4420	-0.02139479
5	0x3f9c7643	1.2223591
6	0x3d0ab3cd	0.033862878
7	0x3f9d0537	1.2267216
8	0xbe643d65	-0.22289045
9	0x3fbf1345	1.4927756
10	0x3fb91105	1.4458319
11	0xbc834f03	-0.016028887
12	0x3fccee0b	1.6010145
13	0x3fb14363	1.384869
14	0xbe3fb914	-0.18722945
15	0x3fac94de	1.3482931
16	0xbdf48428	-0.11939269
17	0x3fc27871	1.5193006
18	0x3fa7d439	1.311164
19	0x3f9b6330	1.2139645
20	0xbcd50560	-0.02600354
21	0x3e0b68f4	0.13614255
22	0x3faeecdf	1.3666037
23	0x3d947370	0.072485805
24	0xbd373872	-0.044731565
25	0xbdd73e73	-0.10509958
26	0xbddcb941	-0.10777522
27	0x3fa059a4	1.2527356
28	0x3e421186	0.18951997
29	0x3fb91956	1.4460857
30	0x3d698672	0.057012983
31	0x3fc161b6	1.5107944
32	0xbe46122b	-0.19342868
33	0xbd7e0078	-0.062012166
34	0x3e173d74	0.14769536
35	0x3fa812c4	1.3130727
36	0x3faca6b4	1.3488374
37	0xbc84cd40	-0.016211152
38	0x3fca30a0	1.5796089
39	0xbe1cc749	-0.15310396
40	0x3c679fa0	0.014137179
41	0x3d88a618	0.06672305
42	0x3fb28d50	1.3949375
43	0xba8fa41c	-0.0010958943
44	0x3b8a9548	0.0042292215
45	0x3fa4bccd	1.2870117
46	0x3e3b9874	0.18319875
47	0xbe7da479	-0.24769773
48	0x3f8d4a32	1.1038268
49	0x3e48f174	0.19623357
50	0x3fbe7f96	1.4882686
51	0x3fa7b929	1.3103381
52	0x3fba807e	1.4570463
53	0xbe4844a4	-0.19557434
54	0x3fae02f7	1.3594655
55	0x3fcf0896	1.6174495
56	0x3f9c8b37	1.2229985
57	0xbdffb2c7	-0.12485271
58	0x3fa7f96e	1.3122995
59	0x3f8dcef2	1.107878
60	0x3f95568f	1.166704
61	0x3e02f866	0.12790069
62	0x3fac8283	1.3477329
63	0x3fa51608	1.2897348

fc2.weight f4 [5, 64]
0	0x3f26a7dc	0.65099883
1	0xbeda45d9	-0.42631415
2	0xbd1644c0	-0.03668666
3	0x3edcd2d7	0.43129608
4	0xbddf566c	-0.109051555
5	0x3f118e10	0.56857395
6	0x3d258e4e	0.040418915
7	0x3ef81b54	0.4845835
8	0xbd894a0c	-0.067035764
9	0x3f271bcc	0.6527679
10	0x3f17fa16	0.59365976
11	0xbdbc3124	-0.0918906
12	0x3f208c4c	0.62714076
13	0x3f051f59	0.5200096
14	0x3dc6fe48	0.09716469
15	0x3f03e04e	0.51514137
16	0x3d898578	0.0671491
17	0x3f085f7f	0.53270715
18	0x3f1e97ba	0.61950266
19	0x3f1cb8ee	0.6121968
20	0xbac5d800	-0.001509428
21	0x3e0de0ed	0.13855334
22	0x3f228367	0.63481754
23	0xbbb96ec0	-0.0056589544
24	0x3d884e4a	0.066555575
25	0xbbd389c0	-0.00645563
26	0xbce94f18	-0.028480098
27	0x3f28fe97	0.66013473
28	0x3da210a0	0.07913327
29	0x3f116b6a	0.56804526
30	0xbbcec37a	-0.0063099237
31	0x3f0ef042	0.55835354
32	0xbc4df0a0	-0.0125695765
33	0x3db72a56	0.08943622
34	0x3e096739	0.13418283
35	0x3f242bcf	0.64129347
36	0x3ee43f6b	0.44579634
37	0xbd5204ec	-0.051274225
38	0x3f0b6d3b	0.5446355
39	0xbd8ba788	-0.068190634
40	0x3d9ffd74	0.07812014
41	0xbd346868	-0.044044882
42	0x3f0d52a9	0.55204254
43	0xbd5465e4	-0.051854983
44	0xbdb2b0ce	-0.08725129
45	0x3f120ad7	0.5704779
46	0x3d0f60c4	0.035004392
47	0xbd892c8f	-0.06697952
48	0x3ed9ea98	0.42561793
49	0x3d4f3177	0.050584283
50	0x3ef70c31	0.4825149
51	0x3f1ec1e3	0.620146
52	0x3f02df7d	0.51122266
53	0xbb919d67	-0.0044438126
54	0x3f006165	0.5014861
55	0x3f287a7f	0.65811914
56	0x3f185a59	0.5951286
57	0x3de7fd22	0.11327578
58	0x3f2705d6	0.6524328
59	0x3eff7ae7	0.49898455
60	0x3f1e9d34	0.6195862
61	0x3d95105a	0.072785094
62	0x3f1827c7	0.59435695
63	0x3f11ccd1	0.5695315
64	0x3f28de32	0.65964043
65	0xbf3aa08c	-0.72901225
66	0xbd755708	-0.059897453
67	0x3f2eba9c	0.68253493
68	0xbd441c64	-0.047878638
69	0x3f21ba05	0.6317447
70	0x3d330cb0	0.04371327
71	0x3ee2fcaf	0.44333407
72	0x3e15b08c	0.14618129
73	0x3eff250c	0.49832952
74	0x3efb4b52	0.49080902
75	0xbc61d149	-0.013782808
76	0x3f2b8e69	0.67014176
77	0x3eed5f5f	0.46361825
78	0xbda841e6	-0.08215694
79	0x3f0107ca	0.5040251
80	0x3cc47e4d	0.023986006
81	0x3f0ece8a	0.55783904
82	0x3efa9adf	0.48946282
83	0x3f100d5d	0.5627039
84	0xbc3b6d9d	-0.011439708
85	0xbd296078	-0.041351765
86	0x3f22e8b2	0.63636315
87	0x3ce64dd8	0.02811329
88	0xbd8ca02c	-0.06866488
89	0xbd88bee2	-0.06677033
90	0x3d47f234	0.048814967
91	0x3f2a61ca	0.66555464
92	0xbddaf230	-0.10690725
93	0x3f08a6d7	0.5337958
94	0xbda0e581	-0.078562744
95	0x3f2db020	0.6784687
96	0xbc28ad20	-0.0102951825
97	0xbca6e550	-0.020373017
98	0x3d335e19	0.04379091
99	0x3f1633eb	0.5867297
100	0x3ef8d9cd	0.4860367
101	0xbc199a40	-0.009375155
102	0x3f17b1f4	0.5925591
103	0xbceb6330	-0.02873382
104	0x3bd593e0	0.006517872
105	0x3da631a0	0.08114934
106	0x3f04768f	0.51743406
107	0xbde5acb4	-0.11214581
108	0x3ddd8a94	0.10817447
109	0x3f014995	0.505029
110	0x3dec2cb2	0.115319625
111	0xbd49abbe	-0.04923605
112	0x3ef6d8be	0.48212236
113	0xbc343640	-0.010999262
114	0x3ee96652	0.45585877
115	0x3f2d8224	0.67776704
116	0x3f1cc69e	0.61240566
117	0xbd4f365f	-0.05058896
118	0x3f0487b7	0.51769584
119	0x3f111d42	0.5668527
120	0x3f258b7e	0.64665973
121	0x3d0f3498	0.034962267
122	0x3f275138	0.65358305
123	0x3f205918	0.62635946
124	0x3f08e230	0.53470135
125	0x3dd8a52a	0.105783775
126	0x3f04a56a	0.518149
127	0x3f13f42d	0.5779446
128	0x3f08a46e	0.533759
129	0xbd6dd3c9	-0.058063302
130	0x3d7f0be4	0.0622672
131	0x3f1f5565	0.62239677
132	0x3d1e95d8	0.03871712
133	0x3ee858bc	0.453802
134	0x3d815d6f	0.06316649
135	0x3f052cca	0.5202147
136	0xbdb56c48	-0.08858544
137	0x3f0d447c	0.55182624
138	0x3f053b21	0.5204335
139	0x3dc174da	0.09446116
140	0x3f27f798	0.65612173
141	0x3eea2e2b	0.45738348
142	0x3dcf9086	0.101349875
143	0x3eed7274	0.46376383
144	0xbb7ecf4a	-0.0038880878
145	0x3f1d1acd	0.6136902
146	0x3f30ae03	0.6901552
147	0x3ef3b98f	0.47602507
148	0x3cc1b798	0.023647115
149	0x3d8cfa3a	0.068836644
150	0x3ee2ef6c	0.4432329
151	0xbd8b576a	-0.06803782
152	0x3d10436c	0.03522055
153	0x3d86b306	0.06577115
154	0xbdd840cc	-0.10559234
155	0x3eeead98	0.46616817
156	0x3df4e6fe	0.11958121
157	0x3f0cc642	0.5499002
158	0xbc7b969f	-0.015355735
159	0x3f1e519a	0.61843264
160	0x3dcc597a	0.09978004
161	0xbda93c80	-0.082634926
162	0xbcade22a	-0.021226007
163	0x3ef03a42	0.46919447
164	0x3eee5fc0	0.46557426
165	0xbd8c750a	-0.06858261
166	0x3f27bf4a	0.6552626
167	0xbd51e060	-0.05123937
168	0x3dec2da8	0.11532146
169	0x3dcf1394	0.10111156
170	0x3f2d4b48	0.67692995
171	0xbdd62dba	-0.104579404
172	0x3dfa50f2	0.1222247
173	0x3f29f3e8	0.66387796
174	0xbce9d018	-0.02854161
175	0xbdc3930a	-0.0954953
176	0x3f1f4d00	0.6222687
177	0xbd6d4408	-0.057926208
178	0x3f294435	0.661197
179	0x3f1b25e1	0.60604674
180	0x3f27ae73	0.65500563
181	0xbde82c91	-0.11336625
182	0x3f1b4eb2	0.60666955
183	0x3f0ce06e	0.5502995
184	0x3ef2804b	0.47363505
185	0xbd8a14f0	-0.06742275
186	0x3f0685bf	0.5254783
187	0x3efa3944	0.48871815
188	0x3f06cb64	0.526541
189	0xbddcc62a	-0.10779984
190	0x3f25ad17	0.6471724
191	0x3f23a682	0.63925946
192	0x3ee63a0c	0.4496616
193	0xbf04ef8c	-0.5192802
194	0xbd37f924	-0.044915333
195	0x3f03c23d	0.5146826
196	0xbd40e330	-0.047091663
197	0x3f201d44	0.62544656
198	0xbdab8516	-0.083749935
199	0x3f1afb3c	0.60539603
200	0xbb9c2f40	-0.004766375
201	0x3f2b3125	0.66871864
202	0x3f176f78	0.5915446
203	0x3dfd5502	0.123697296
204	0x3f2681e0	0.65041924
205	0x3f1eb5bc	0.61996055
206	0xbd129340	-0.03578496
207	0x3f1823c5	0.5942958
208	0xbe08147e	-0.13289067
209	0x3f20adb4	0.6276505
210	0x3f07ea8e	0.5309228
211	0x3f0027a3	0.5006048
212	0xbd977106	-0.073946044
213	0x3df67907	0.12034803
214	0x3f02d4a7	0.5110573
215	0xbdd9b83c	-0.10630843
216	0xbdd94c52	-0.1061026
217	0x3d4453f8	0.04793164
218	0x3dd5271e	0.10407852
219	0x3f1144ac	0.5674541
220	0x3d50fa78	0.051020116
221	0x3f0c7980	0.54872894
222	0x3bb8562c	0.005625507
223	0x3f188a93	0.5958645
224	0x3db191c8	0.08670384
225	0xbd53139c	-0.051532373
226	0xbd9811c9	-0.07425267
227	0x3f0173ad	0.5056713
228	0x3f1f32f0	0.621871
229	0x3cf27638	0.029597387
230	0x3efeeea6	0.4979145
231	0xbde96870	-0.11396873
232	0xbdf9e966	-0.1220272
233	0xbd54bc80	-0.05193758
234	0x3f2c3c9c	0.6727998
235	0x3d770044	0.060302988
236	0x3cce0228	0.025147513
237	0x3ef09e1f	0.46995637
238	0xbd8394fe	-0.064249024
239	0xbd8256f2	-0.0636424
240	0x3f0486a5	0.5176795
241	0xbcdf7da7	-0.027281595
242	0x3f0b1c41	0.5433999
243	0x3eea111d	0.4571618
244	0x3f0e145f	0.55499834
245	0xbc2418c3	-0.010015669
246	0x3f18e642	0.59726346
247	0x3f21117c	0.62917304
248	0x3f2fa86c	0.68616366
249	0xbddb08ea	-0.106950596
250	0x3f146c5c	0.57977843
251	0x3f1494ce	0.5803956
252	0x3f1b8bfb	0.6076047
253	0xbc897f38	-0.016784295
254	0x3f0a4e3a	0.54025614
255	0x3f12c74c	0.5733535

fc2.bias f4 [5]
0	0x3f02a867	0.5103821
1	0x3f056f97	0.521234
2	0x3f0d07bc	0.55089927
3	0x3f25340c	0.6453254
4	0x3f22f6f7	0.6365809

exp_avg f4 [64, 24]
0	0x44f5ce2e	1966.4431
1	0x44c1ac43	1549.3832
2	0x44b98308	1484.0947
3	0x44b85086	1474.5164
4	0x44be8662	1524.1995
5	0x44b98308	1484.0947
6	0x44d75dd2	1722.9319
7	0x44d96d2a	1739.4114
8	0x44b98308	1484.0947
9	0x44e7916c	1852.5444
10	0x44b98308	1484.0947
11	0x44b98308	1484.0947
12	0x44f13e8a	1929.9543
13	0x44b5166e	1448.7009
14	0x44b98638	1484.1943
15	0x44ce9be8	1652.8721
16	0x44ba08a0	1488.2695
17	0x448bed1a	1119.4094
18	0x4480357f	1025.6718
19	0x4497d890	1214.7676
20	0x44ba5ddc	1490.9331
21	0x450e54d9	2277.303
22	0x44dd581c	1770.7534
23	0x44b98308	1484.0947
24	0xc4462096	-792.50916
25	0xc3f2b61d	-485.42276
26	0xc3c77a01	-398.95316
27	0xc3c38457	-391.0339
28	0xc3dee22f	-445.76706
29	0xc3c77a01	-398.95316
30	0xc4294bd5	-677.1849
31	0xc42716ad	-668.3543
32	0xc3c77a01	-398.95316
33	0xc4400c44	-768.19165
34	0xc3c77a01	-398.95316
35	0xc3c77a01	-398.95316
36	0xc456fb36	-859.9252
37	0xc3b39f41	-359.24417
38	0xc3c781de	-399.0146
39	0xc411cf1f	-583.23627
40	0xc3c93334	-402.40002
41	0xc0808860	-4.0166473
42	0x431fb252	159.69656
43	0xc30026e9	-128.152
44	0xc3c868ed	-400.81973
45	0xc499c04f	-1230.0096
46	0xc4183e3e	-608.97253
47	0xc3c77a01	-398.95316
48	0x00000000	0.0
49	0x00000000	0.0
50	0x00000000	0.0
51	0x00000000	0.0
52	0x00000000	0.0
53	0x00000000	0.0
54	0x00000000	0.0
55	0x00000000	0.0
56	0x00000000	0.0
57	0x00000000	0.0
58	0x00000000	0.0
59	0x00000000	0.0
60	0x00000000	0.0
61	0x00000000	0.0
62	0x00000000	0.0
63	0x00000000	0.0
64	0x00000000	0.0
65	0x00000000	0.0
66	0x00000000	0.0
67	0x00000000	0.0
68	0x00000000	0.0
69	0x00000000	0.0
70	0x00000000	0.0
71	0x00000000	0.0
72	0x44b1dafa	1422.843
73	0x448db784	1133.7349
74	0x448277e3	1043.7465
75	0x4481a6a1	1037.2072
76	0x448835c2	1089.6799
77	0x448277e3	1043.7465
78	0x44a3c81a	1310.2532
79	0x44a244cc	1298.1499
80	0x448277e3	1043.7465
81	0x44aca339	1381.1007
82	0x448277e3	1043.7465
83	0x448277e3	1043.7465
84	0x44b4e1ba	1447.054
85	0x447babe5	1006.68585
86	0x44827a03	1043.8129
87	0x44985186	1218.5476
88	0x4482d310	1046.5957
89	0x4426a2ea	666.54553
90	0x440ddb9a	567.4313
91	0x4443772b	781.862
92	0x44835494	1050.6431
93	0x44e1d714	1806.7212
94	0x44a3d2ed	1310.5914
95	0x448277e3	1043.7465
96	0x00000000	0.0
97	0x00000000	0.0
98	0x00000000	0.0
99	0x00000000	0.0
100	0x00000000	0.0
101	0x00000000	0.0
102	0x00000000	0.0
103	0x00000000	0.0
104	0x00000000	0.0
105	0x00000000	0.0
106	0x00000000	0.0
107	0x00000000	0.0
108	0x00000000	0.0
109	0x00000000	0.0
110	0x00000000	0.0
111	0x00000000	0.0
112	0x00000000	0.0
113	0x00000000	0.0
114	0x00000000	0.0
115	0x00000000	0.0
116	0x00000000	0.0
117	0x00000000	0.0
118	0x00000000	0.0
119	0x00000000	0.0
120	0x44b869bd	1475.3043
121	0x448ef7d8	1143.7451
122	0x44818154	1036.0415
123	0x4480733a	1027.6008
124	0x44887cf2	1091.9045
125	0x44818154	1036.0415
126	0x44a3fd5a	1311.9172
127	0x449fcba8	1278.3643
128	0x44818154	1036.0415
129	0x44af9ae3	1404.8402
130	0x44818154	1036.0415
131	0x44818154	1036.0415
132	0x44af1268	1400.5752
133	0x447a82fb	1002.0466
134	0x4481841c	1036.1284
135	0x4495b17c	1197.5464
136	0x4481f706	1039.7195
137	0x442ba887	686.63324
138	0x44131c77	588.44476
139	0x44475f9f	797.4941
140	0x44823d16	1041.9089
141	0x44deee2f	1783.4432
142	0x44a74154	1338.0415
143	0x44818154	1036.0415
144	0x00000004	6e-45
145	0x00000004	6e-45
146	0x00000004	6e-45
147	0x00000004	6e-45
148	0x00000004	6e-45
149	0x00000004	6e-45
150	0x00000004	6e-45
151	0x00000004	6e-45
152	0x00000004	6e-45
153	0x00000004	6e-45
154	0x00000004	6e-45
155	0x00000004	6e-45
156	0x00000004	6e-45
157	0x00000004	6e-45
158	0x00000004	6e-45
159	0x00000004	6e-45
160	0x00000004	6e-45
161	0x00000004	6e-45
162	0x00000004	6e-45
163	0x00000004	6e-45
164	0x00000004	6e-45
165	0x00000004	6e-45
166	0x00000004	6e-45
167	0x00000004	6e-45
168	0x44d76efe	1723.4685
169	0x44b2d87f	1430.7655
170	0x44a62960	1329.293
171	0x44a50ba8	1320.3643
172	0x44aceb68	1383.3564
173	0x44a62960	1329.293
174	0x44c20d3b	1552.4135
175	0x44bbdda6	1502.9265
176	0x44a62960	1329.293
177	0x44cf05f2	1656.1858
178	0x44a62960	1329.293
179	0x44a62960	1329.293
180	0x44c4bc16	1573.8777
181	0x44a33334	1305.6001
182	0x44a62bc0	1329.3672
183	0x44b4688c	1443.2671
184	0x44a6a5b5	1333.1783
185	0x448761aa	1083.052
186	0x4482331f	1041.5975
187	0x449174a2	1163.6448
188	0x44a6eefa	1335.468
189	0x44ee2bd2	1905.3694
190	0x44ca3130	1617.5371
191	0x44a62960	1329.293
192	0x00000004	6e-45
193	0x00000004	6e-45
194	0x00000004	6e-45
195	0x00000004	6e-45
196	0x00000004	6e-45
197	0x00000004	6e-45
198	0x00000004	6e-45
199	0x00000004	6e-45
200	0x00000004	6e-45
201	0x00000004	6e-45
202	0x00000004	6e-45
203	0x00000004	6e-45
204	0x00000004	6e-45
205	0x00000004	6e-45
206	0x00000004	6e-45
207	0x00000004	6e-45
208	0x00000004	6e-45
209	0x00000004	6e-45
210	0x00000004	6e-45
211	0x00000004	6e-45
212	0x00000004	6e-45
213	0x00000004	6e-45
214	0x80000004	-6e-45
215	0x00000004	6e-45
216	0x44e945fc	1866.187
217	0x44bd6353	1515.1039
218	0x44af423e	1402.0701
219	0x44ae0dad	1392.4274
220	0x44b6b9de	1461.8083
221	0x44af423e	1402.0701
222	0x44ce701c	1651.5034
223	0x44c83142	1601.5393
224	0x44af423e	1402.0701
225	0x44dc459e	1762.1755
226	0x44af423c	1402.0698
227	0x44af423e	1402.0701
228	0x44d214f6	1680.655
229	0x44abf419	1375.628
230	0x44af456a	1402.1692
231	0x44bf41b2	1530.053
232	0x44afc8b3	1406.2719
233	0x448cb5f3	1125.6859
234	0x44871ea1	1080.9572
235	0x44981f31	1216.9747
236	0x44b02250	1409.0723
237	0x44ff6308	2043.0947
238	0x44d997fc	1740.7495
239	0x44af423e	1402.0701
240	0x44c82432	1601.1311
241	0x44a0d503	1286.6566
242	0x44941f7e	1184.9841
243	0x44931dbe	1176.9294
244	0x449ab9c1	1237.8048
245	0x44941f7e	1184.9841
246	0x44b16078	1419.0146
247	0x44ac6ec0	1379.4609
248	0x44941f7e	1184.9841
249	0x44bc992f	1508.787
250	0x44941f7b	1184.9838
251	0x44941f7e	1184.9841
252	0x44b68364	1460.106
253	0x4490db46	1158.8523
254	0x44942264	1185.0747
255	0x44a3df56	1310.9792

exp_avg_sq f4 [64, 24]
0	0x4e4c3479	8.564977e+08
1	0x4e4d4e86	8.6111885e+08
2	0x4e4ebc0e	8.671077e+08
3	0x4e4e2680	8.646574e+08
4	0x4e4df85c	8.6390144e+08
5	0x4e4ebc0e	8.671077e+08
6	0x4e4b9277	8.538434e+08
7	0x4e4d1b31	8.602778e+08
8	0x4e4ebc0e	8.671077e+08
9	0x4e4c5f55	8.5719994e+08
10	0x4e4e52ce	8.653833e+08
11	0x4e4ebc0e	8.671077e+08
12	0x4e2c9b13	7.23961e+08
13	0x4e4d81f8	8.619617e+08
14	0x4e4e574e	8.65457e+08
15	0x4e4df3e3	8.6382816e+08
16	0x4e4e5ad7	8.6551494e+08
17	0x4e39e53b	7.7970195e+08
18	0x4e24229f	6.884331e+08
19	0x4e2b683b	7.189337e+08
20	0x4e4e9fd6	8.666454e+08
21	0x4e4e4fcd	8.653341e+08
22	0x4e4caa50	8.584284e+08
23	0x4e4ebc0e	8.671077e+08
24	0x4df09682	5.0454944e+08
25	0x4df21cae	5.0774573e+08
26	0x4df3dcd6	5.1141702e+08
27	0x4df327f4	5.0993523e+08
28	0x4df308d8	5.096804e+08
29	0x4df3dcd6	5.1141702e+08
30	0x4df06df3	5.0421718e+08
31	0x4df26daa	5.0840915e+08
32	0x4df3dcd6	5.1141702e+08
33	0x4df0fe49	5.0539958e+08
34	0x4df3931e	5.1081312e+08
35	0x4df3dcd6	5.1141702e+08
36	0x4dbf2b40	4.0091034e+08
37	0x4df273b8	5.0845875e+08
38	0x4df39f4e	5.1091296e+08
39	0x4df2b8ca	5.0902458e+08
40	0x4df3564f	5.1031498e+08
41	0x4dd33e8e	4.4301152e+08
42	0x4db1c8cd	3.7284086e+08
43	0x4dbd6c00	3.9724646e+08
44	0x4df3db12	5.1140256e+08
45	0x4df34f9c	5.102601e+08
46	0x4df14860	5.0600653e+08
47	0x4df3dcd6	5.1141702e+08
48	0x00000000	0.0
49	0x00000000	0.0
50	0x00000000	0.0
51	0x00000000	0.0
52	0x00000000	0.0
53	0x00000000	0.0
54	0x00000000	0.0
55	0x00000000	0.0
56	0x00000000	0.0
57	0x00000000	0.0
58	0x00000000	0.0
59	0x00000000	0.0
60	0x00000000	0.0
61	0x00000000	0.0
62	0x00000000	0.0
63	0x00000000	0.0
64	0x00000000	0.0
65	0x00000000	0.0
66	0x00000000	0.0
67	0x00000000	0.0
68	0x00000000	0.0
69	0x00000000	0.0
70	0x00000000	0.0
71	0x00000000	0.0
72	0x4e328fc8	7.489418e+08
73	0x4e33c58e	7.5401715e+08
74	0x4e34eadb	7.588226e+08
75	0x4e346b80	7.56736e+08
76	0x4e343a85	7.559335e+08
77	0x4e34eadb	7.588226e+08
78	0x4e327af5	7.4860064e+08
79	0x4e33cad8	7.541038e+08
80	0x4e34eadb	7.588226e+08
81	0x4e32e12b	7.5027526e+08
82	0x4e349fd2	7.575932e+08
83	0x4e34eadb	7.588226e+08
84	0x4e16a9dd	6.3192864e+08
85	0x4e34023a	7.550112e+08
86	0x4e3492b8	7.5737856e+08
87	0x4e343067	7.5576774e+08
88	0x4e349d58	7.5755264e+08
89	0x4e226b8b	6.8123923e+08
90	0x4e0f05ae	5.998785e+08
91	0x4e15c359	6.281519e+08
92	0x4e34c746	7.582396e+08
93	0x4e348b3c	7.5725594e+08
94	0x4e32f24d	7.5055597e+08
95	0x4e34eadb	7.588226e+08
96	0x00000000	0.0
97	0x00000000	0.0
98	0x00000000	0.0
99	0x00000000	0.0
100	0x00000000	0.0
101	0x00000000	0.0
102	0x00000000	0.0
103	0x00000000	0.0
104	0x00000000	0.0
105	0x00000000	0.0
106	0x00000000	0.0
107	0x00000000	0.0
108	0x00000000	0.0
109	0x00000000	0.0
110	0x00000000	0.0
111	0x00000000	0.0
112	0x00000000	0.0
113	0x00000000	0.0
114	0x00000000	0.0
115	0x00000000	0.0
116	0x00000000	0.0
117	0x00000000	0.0
118	0x00000000	0.0
119	0x00000000	0.0
120	0x4e3656a6	7.64783e+08
121	0x4e375cc0	7.6907725e+08
122	0x4e38bea8	7.7487565e+08
123	0x4e3836e2	7.7265114e+08
124	0x4e37ebec	7.71423e+08
125	0x4e38bea8	7.7487565e+08
126	0x4e35ef26	7.630872e+08
127	0x4e374d28	7.6882176e+08
128	0x4e38bea8	7.7487565e+08
129	0x4e3690d9	7.657365e+08
130	0x4e38687f	7.73464e+08
131	0x4e38bea8	7.7487565e+08
132	0x4e1a8621	6.481204e+08
133	0x4e37a233	7.702151e+08
134	0x4e3866ae	7.7343424e+08
135	0x4e38038a	7.718099e+08
136	0x4e384de9	7.730284e+08
137	0x4e267079	6.980972e+08
138	0x4e13426e	6.176511e+08
139	0x4e1995dc	6.441838e+08
140	0x4e38a9df	7.745351e+08
141	0x4e384a0e	7.7296525e+08
142	0x4e36b912	7.663955e+08
143	0x4e38bea8	7.7487565e+08
144	0x366021bc	3.3398237e-06
145	0x36cfd826	6.1942437e-06
146	0x36cfd826	6.1942437e-06
147	0x36c5ffdf	5.900845e-06
148	0x36cfd826	6.1942437e-06
149	0x36cfd826	6.1942437e-06
150	0x36bffadf	5.721449e-06
151	0x36cfd7be	6.1941964e-06
152	0x36cfd826	6.1942437e-06
153	0x36bffd29	5.7217153e-06
154	0x36cfd826	6.1942437e-06
155	0x36cfd826	6.1942437e-06
156	0x35f3ad50	1.8155351e-06
157	0x36cfd826	6.1942437e-06
158	0x36cfd826	6.1942437e-06
159	0x36cfd826	6.1942437e-06
160	0x36cfd79c	6.194181e-06
161	0x36cfd826	6.1942437e-06
162	0x36cfd6f2	6.1941037e-06
163	0x36bc01b8	5.6030367e-06
164	0x36cfd826	6.1942437e-06
165	0x3608d4bd	2.038941e-06
166	0x3658a69e	3.2283492e-06
167	0x36cfd826	6.1942437e-06
168	0x4e1314cd	6.169035e+08
169	0x4e13ddee	6.201988e+08
170	0x4e15158c	6.253043e+08
171	0x4e14aa53	6.235476e+08
172	0x4e1455ff	6.2216595e+08
173	0x4e15158c	6.253043e+08
174	0x4e12b081	6.152602e+08
175	0x4e13ca6f	6.1987936e+08
176	0x4e15158c	6.253043e+08
177	0x4e135cef	6.180853e+08
178	0x4e14d6ba	6.242751e+08
179	0x4e15158c	6.253043e+08
180	0x4e030c52	5.496557e+08
181	0x4e143f67	6.217958e+08
182	0x4e14b99b	6.2379795e+08
183	0x4e148aca	6.230309e+08
184	0x4e14a2fb	6.2342726e+08
185	0x4e0a8a4f	5.8108e+08
186	0x4dfe4cb8	5.333051e+08
187	0x4e02a3df	5.479444e+08
188	0x4e14fb9d	6.248794e+08
189	0x4e14adf9	6.2360736e+08
190	0x4e137693	6.185054e+08
191	0x4e15158c	6.253043e+08
192	0x3a29d8ad	0.00064791256
193	0x3a29d8ad	0.00064791256
194	0x3a29d8ad	0.00064791256
195	0x3a29d8ad	0.00064791256
196	0x3a29d8ad	0.00064791256
197	0x3a29d8ad	0.00064791256
198	0x394e5c0b	0.0001967998
199	0x3a29d8ad	0.00064791256
200	0x3a29d8ad	0.00064791256
201	0x39249a35	0.00015697705
202	0x3a29d8ad	0.00064791256
203	0x3a29d8ad	0.00064791256
204	0x3a23fadf	0.0006255339
205	0x3a29d8ad	0.00064791256
206	0x3a29d8ad	0.00064791256
207	0x3a29d8ad	0.00064791256
208	0x3a29d8ad	0.00064791256
209	0x3a29d8ad	0.00064791256
210	0x3a29d8ad	0.00064791256
211	0x3a250a01	0.0006295741
212	0x3a29d8ad	0.00064791256
213	0x3a29d8ad	0.00064791256
214	0x37c1a727	2.308523e-05
215	0x3a29d8ad	0.00064791256
216	0x4e3ab37d	7.830813e+08
217	0x4e3ba5ed	7.870534e+08
218	0x4e3d2be9	7.934429e+08
219	0x4e3c9eb4	7.9112934e+08
220	0x4e3c3aea	7.894944e+08
221	0x4e3d2be9	7.934429e+08
222	0x4e3a0e45	7.8037434e+08
223	0x4e3b6cf8	7.861202e+08
224	0x4e3d2be9	7.934429e+08
225	0x4e3aea38	7.83978e+08
226	0x4e3cccbb	7.9188346e+08
227	0x4e3d2be9	7.934429e+08
228	0x4e2406f4	6.879798e+08
229	0x4e3bfe4e	7.885014e+08
230	0x4e3cba9d	7.915866e+08
231	0x4e3c7e95	7.906031e+08
232	0x4e3ca3ad	7.912108e+08
233	0x4e2e4795	7.309817e+08
234	0x4e1e5cde	6.642216e+08
235	0x4e234899	6.84861e+08
236	0x4e3d0e11	7.929539e+08
237	0x4e3caf31	7.913995e+08
238	0x4e3b1c3d	7.847975e+08
239	0x4e3d2be9	7.934429e+08
240	0x4e1e4745	6.638677e+08
241	0x4e1f2056	6.674241e+08
242	0x4e205b02	6.725797e+08
243	0x4e1fe2fd	6.706133e+08
244	0x4e1f962a	6.693546e+08
245	0x4e205b02	6.725797e+08
246	0x4e1dcae5	6.6182995e+08
247	0x4e1ef08c	6.6664115e+08
248	0x4e205b02	6.725797e+08
249	0x4e1e703a	6.6453875e+08
250	0x4e2007f2	6.712188e+08
251	0x4e205b02	6.725797e+08
252	0x4e098cb3	5.7692486e+08
253	0x4e1f5d0e	6.6841894e+08
254	0x4e1ffde8	6.7105434e+08
255	0x4e1fc5af	6.701332e+08

exp_avg f4 [64]
0	0x4210ca2e	36.19744
1	0xc11bb062	-9.730562
2	0x00000000	0.0
3	0x41cba865	25.457224
4	0x00000000	0.0
5	0x41ca2789	25.269304
6	0x00000004	6e-45
7	0x4201afe8	32.421783
8	0x00000004	6e-45
9	0x4208c98d	34.196827
10	0x41e73769	28.902056
11	0x00000004	6e-45
12	0x41ffab74	31.958717
13	0x41b1486c	22.160362
14	0x00000000	0.0
15	0x4200afb4	32.171585
16	0x00000004	6e-45
17	0x420ef9dc	35.744003
18	0x4215e7b6	37.47628
19	0x41ee480a	29.785175
20	0x00000004	6e-45
21	0x00000004	6e-45
22	0x41dbf1b0	27.493011
23	0x00000000	0.0
24	0x00000004	6e-45
25	0x00000000	0.0
26	0x00000000	0.0
27	0x41ece436	29.611431
28	0x00000000	0.0
29	0x41d4de7a	26.608631
30	0x00000004	6e-45
31	0x41c402d6	24.501385
32	0x00000000	0.0
33	0x00000000	0.0
34	0x00000004	6e-45
35	0x4207f0d3	33.98518
36	0x41decb6c	27.849327
37	0x00000000	0.0
38	0x421d2c76	39.29342
39	0x00000004	6e-45
40	0x00000000	0.0
41	0x00000000	0.0
42	0x41fdb1ac	31.711754
43	0x00000004	6e-45
44	0x00000004	6e-45
45	0x4207b6b4	33.92842
46	0x00000000	0.0
47	0x00000004	6e-45
48	0x41d8d0f2	27.102024
49	0x00000004	6e-45
50	0x420206f4	32.50679
51	0x41f816f8	31.011215
52	0x420c7ec6	35.123802
53	0x00000004	6e-45
54	0x41f84dc4	31.037971
55	0x41ebeddc	29.491142
56	0x418524f0	16.643036
57	0x00000000	0.0
58	0x41efd1a3	29.977362
59	0x419b49cb	19.411032
60	0x41bf9552	23.94791
61	0x00000000	0.0
62	0x420cff7c	35.249496
63	0x4210a619	36.162205

exp_avg_sq f4 [64]
0	0x48fbde5a	515826.8
1	0x48948d4a	304234.3
2	0x00000000	0.0
3	0x48dc6a6b	451411.34
4	0x00000000	0.0
5	0x48e11433	460961.6
6	0x317d3868	3.6848409e-09
7	0x48b5a206	371984.2
8	0x34ceed7a	3.8543277e-07
9	0x48e678e3	472007.1
10	0x48c35d68	400107.25
11	0x3af7aca0	0.0018896051
12	0x49087bda	559037.6
13	0x48a615a9	340141.28
14	0x00000000	0.0
15	0x48c4b025	402817.16
16	0x42022fdd	32.54674
17	0x48e85137	475785.72
18	0x48dc02b5	450581.66
19	0x48cda943	421194.1
20	0x36096923	2.0475788e-06
21	0x37e6178f	2.7429107e-05
22	0x48e11707	460984.22
23	0x00000000	0.0
24	0x353d85a8	7.060248e-07
25	0x00000000	0.0
26	0x00000000	0.0
27	0x48fb0a3e	514129.94
28	0x00000000	0.0
29	0x48c221b8	397581.75
30	0x2b034613	4.6637797e-13
31	0x48f0714c	492426.38
32	0x00000000	0.0
33	0x00000000	0.0
34	0x2f409571	1.751539e-10
35	0x48e42145	467210.16
36	0x48b141d8	363022.75
37	0x00000000	0.0
38	0x48ed94c5	486566.16
39	0x325f3c71	1.2994051e-08
40	0x00000000	0.0
41	0x00000000	0.0
42	0x48df3672	457139.56
43	0x288e5b63	1.58048e-14
44	0x385b8359	5.2335996e-05
45	0x48c86ba1	410461.03
46	0x00000000	0.0
47	0x32905a10	1.6804762e-08
48	0x48a75335	342681.66
49	0x3202f911	7.623627e-09
50	0x48b80a98	376916.75
51	0x48f484b7	500773.72
52	0x48ec3b87	483804.22
53	0x376a5354	1.3966888e-05
54	0x48c97047	412546.22
55	0x48e7ae7e	474483.94
56	0x48de8577	455723.72
57	0x00000000	0.0
58	0x48fa84cc	513062.38
59	0x48c625d0	405806.5
60	0x48c8bec7	411126.22
61	0x00000000	0.0
62	0x48d94857	444994.72
63	0x48ed1124	485513.12

exp_avg f4 [5, 64]
0	0x449739c6	1209.8054
1	0x44138e48	590.22314
2	0x00000000	0.0
3	0x447573bb	981.8083
4	0x00000000	0.0
5	0x44943f11	1185.9708
6	0x00000004	6e-45
7	0x448589b8	1068.3037
8	0x00000000	0.0
9	0x44a838d4	1345.7759
10	0x44a42ca3	1313.3949
11	0x00000000	0.0
12	0x44ae87fe	1396.2498
13	0x44865e2e	1074.9431
14	0x00000000	0.0
15	0x449351da	1178.5579
16	0x00000004	6e-45
17	0x44b8fb51	1479.8536
18	0x449c8893	1252.268
19	0x4495aadc	1197.3394
20	0x00000000	0.0
21	0x80000004	-6e-45
22	0x449371c2	1179.5549
23	0x00000000	0.0
24	0x00000000	0.0
25	0x00000000	0.0
26	0x00000000	0.0
27	0x44a29396	1300.612
28	0x00000000	0.0
29	0x44aafc0f	1367.8768
30	0x80000004	-6e-45
31	0x449bd7ce	1246.7439
32	0x00000000	0.0
33	0x00000000	0.0
34	0x00000004	6e-45
35	0x44a7d837	1342.7567
36	0x44775ca2	989.4474
37	0x00000000	0.0
38	0x44ad1101	1384.5314
39	0x00000000	0.0
40	0x00000000	0.0
41	0x00000000	0.0
42	0x44a59eae	1324.9587
43	0x00000000	0.0
44	0x80000004	-6e-45
45	0x449a38dd	1233.777
46	0x00000000	0.0
47	0x80000004	-6e-45
48	0x4471c06e	967.0067
49	0x00000004	6e-45
50	0x4499e4c5	1231.149
51	0x449db5df	1261.6835
52	0x44b777d9	1467.7452
53	0x80000004	-6e-45
54	0x44a7538c	1338.6108
55	0x44b0f13b	1415.5385
56	0x4482fd2e	1047.9119
57	0x00000000	0.0
58	0x44b7e42a	1471.1301
59	0x4493990a	1180.7825
60	0x44887c6f	1091.8885
61	0x00000000	0.0
62	0x44a9eef6	1359.4675
63	0x44b9f6c3	1487.7113
64	0xc63e903f	-12196.062
65	0xc5ce1253	-6594.2905
66	0x00000000	0.0
67	0xc61d2219	-10056.524
68	0x00000000	0.0
69	0xc641683b	-12378.058
70	0x80000004	-6e-45
71	0xc62e6c25	-11163.036
72	0x80000004	-6e-45
73	0xc64ec377	-13232.866
74	0xc64aeb51	-12986.829
75	0x80000004	-6e-45
76	0xc6508ec3	-13347.69
77	0xc6241f40	-10503.8125
78	0x00000000	0.0
79	0xc63db950	-12142.328
80	0x80000004	-6e-45
81	0xc655854a	-13665.322
82	0xc64c0b48	-13058.82
83	0xc63f2ae2	-12234.721
84	0x00000004	6e-45
85	0x00000000	0.0
86	0xc638c877	-11826.116
87	0x00000000	0.0
88	0x80000004	-6e-45
89	0x00000000	0.0
90	0x00000000	0.0
91	0xc645776b	-12637.8545
92	0x00000000	0.0
93	0xc64b64dc	-13017.215
94	0x80000004	-6e-45
95	0xc6445b7a	-12566.869
96	0x00000000	0.0
97	0x00000000	0.0
98	0x80000004	-6e-45
99	0xc64f6761	-13273.845
100	0xc6298436	-10849.053
101	0x00000000	0.0
102	0xc651d047	-13428.069
103	0x00000000	0.0
104	0x00000000	0.0
105	0x00000000	0.0
106	0xc647e084	-12792.129
107	0x00000000	0.0
108	0x00000000	0.0
109	0xc644f7d9	-12605.962
110	0x00000000	0.0
111	0x80000004	-6e-45
112	0xc618b6c1	-9773.688
113	0x00000000	0.0
114	0xc6419197	-12388.397
115	0xc63d674d	-12121.825
116	0xc65b2343	-14024.815
117	0x80000004	-6e-45
118	0xc657db83	-13814.878
119	0xc65502f9	-13632.743
120	0xc629c9e6	-10866.475
121	0x00000000	0.0
122	0xc65f7d4a	-14303.322
123	0xc632a89d	-11434.153
124	0xc632b256	-11436.584
125	0x00000000	0.0
126	0xc6554259	-13648.587
127	0xc658a3ea	-13864.979
128	0x46e8336f	29721.717
129	0x4689ecc8	17654.39
130	0x00000000	0.0
131	0x46c5a7be	25299.871
132	0x00000000	0.0
133	0x46e844f2	29730.473
134	0x80000004	-6e-45
135	0x46d40187	27136.764
136	0x80000004	-6e-45
137	0x46fc9b92	32333.785
138	0x46f8cb1b	31845.553
139	0x00000000	0.0
140	0x47020219	33282.098
141	0x46c66994	25396.79
142	0x00000000	0.0
143	0x46e1eaab	28917.334
144	0x80000004	-6e-45
145	0x47047a30	33914.188
146	0x46f3c9f6	31204.98
147	0x46e6da40	29549.125
148	0x00000000	0.0
149	0x00000004	6e-45
150	0x46dff8f9	28668.486
151	0x00000000	0.0
152	0x00000000	0.0
153	0x00000000	0.0
154	0x00000000	0.0
155	0x46ecad3b	30294.615
156	0x00000000	0.0
157	0x46fa1f95	32015.791
158	0x80000004	-6e-45
159	0x46f5770b	31419.521
160	0x00000000	0.0
161	0x00000000	0.0
162	0x80000004	-6e-45
163	0x46f50bd2	31365.91
164	0x46cdd5df	26346.936
165	0x00000000	0.0
166	0x47027190	33393.562
167	0x00000000	0.0
168	0x00000000	0.0
169	0x00000000	0.0
170	0x46fadd36	32110.605
171	0x00000000	0.0
172	0x00000000	0.0
173	0x46e9130b	29833.521
174	0x00000000	0.0
175	0x80000004	-6e-45
176	0x46ba12a4	23817.32
177	0x00000000	0.0
178	0x46e873e2	29753.941
179	0x46e8cf6e	29799.715
180	0x47055628	34134.156
181	0x80000004	-6e-45
182	0x4703dcae	33756.68
183	0x4703dedf	33758.87
184	0x46d49f7f	27215.748
185	0x00000000	0.0
186	0x47070dc3	34573.76
187	0x46da994c	27980.648
188	0x46dbf5ba	28154.863
189	0x00000000	0.0
190	0x47018155	33153.332
191	0x4706806d	34432.426
192	0xc69a6794	-19763.79
193	0xc6365baa	-11670.916
194	0x00000000	0.0
195	0xc684766d	-16955.213
196	0x00000000	0.0
197	0xc6995d38	-19630.61
198	0x80000004	-6e-45
199	0xc68db9b6	-18140.855
200	0x00000000	0.0
201	0xc6a7e55d	-21490.682
202	0xc6a59b27	-21197.576
203	0x00000000	0.0
204	0xc6ade784	-22259.758
205	0xc6840d13	-16902.537
206	0x00000000	0.0
207	0xc695d469	-19178.205
208	0x00000004	6e-45
209	0xc6afe9f4	-22516.977
210	0xc6a25af2	-20781.473
211	0xc698a25b	-19537.178
212	0x00000000	0.0
213	0x80000004	-6e-45
214	0xc694b630	-19035.094
215	0x00000000	0.0
216	0x00000000	0.0
217	0x00000000	0.0
218	0x00000000	0.0
219	0xc69ce4d4	-20082.414
220	0x00000000	0.0
221	0xc6a639c7	-21276.889
222	0x80000004	-6e-45
223	0xc6a3dbec	-20973.96
224	0x00000000	0.0
225	0x00000000	0.0
226	0x80000004	-6e-45
227	0xc6a1ba0e	-20701.027
228	0xc6898c9f	-17606.31
229	0x00000000	0.0
230	0xc6ad315e	-22168.684
231	0x00000000	0.0
232	0x00000000	0.0
233	0x00000000	0.0
234	0xc6a69a3a	-21325.113
235	0x00000000	0.0
236	0x00000000	0.0
237	0xc69a303f	-19736.123
238	0x00000000	0.0
239	0x80000004	-6e-45
240	0xc678a4a9	-15913.165
241	0x80000004	-6e-45
242	0xc69a8522	-19778.566
243	0xc69a7bbd	-19773.87
244	0xc6b080de	-22592.434
245	0x80000004	-6e-45
246	0xc6af99fe	-22476.996
247	0xc6af7f37	-22463.607
248	0xc68e7c43	-18238.13
249	0x00000000	0.0
250	0xc6b3743c	-22970.117
251	0xc6913984	-18588.758
252	0xc69369ad	-18868.838
253	0x00000000	0.0
254	0xc6abdf4d	-21999.65
255	0xc6b2ef5a	-22903.676

exp_avg_sq f4 [5, 64]
0	0x52282cdd	1.805768e+11
1	0x51058ad8	3.5847504e+10
2	0x00000000	0.0
3	0x51fdfeae	1.3636244e+11
4	0x00000000	0.0
5	0x5228d85a	1.8129607e+11
6	0x327c4fb4	1.4686453e-08
7	0x521047c1	1.5491978e+11
8	0x00000000	0.0
9	0x52450876	2.1156263e+11
10	0x523f2f92	2.0528421e+11
11	0x00000000	0.0
12	0x524d8947	2.2069286e+11
13	0x51ffaf57	1.372698e+11
14	0x00000000	0.0
15	0x52205466	1.7215268e+11
16	0x40c6df72	6.214776
17	0x525447cc	2.279344e+11
18	0x52380c60	1.976204e+11
19	0x52278e87	1.7991269e+11
20	0x00000000	0.0
21	0x3936f17d	0.00017446834
22	0x521d8e1a	1.6917348e+11
23	0x00000000	0.0
24	0x00000000	0.0
25	0x00000000	0.0
26	0x00000000	0.0
27	0x522dfaf4	1.8680991e+11
28	0x00000000	0.0
29	0x52413805	2.0746713e+11
30	0x3092ded7	1.0686233e-09
31	0x523a1b08	1.9982936e+11
32	0x00000000	0.0
33	0x00000000	0.0
34	0x317ac4c8	3.6491645e-09
35	0x5238f125	1.9857993e+11
36	0x52086626	1.4645733e+11
37	0x00000000	0.0
38	0x524f2dab	2.224561e+11
39	0x00000000	0.0
40	0x00000000	0.0
41	0x00000000	0.0
42	0x524374db	2.0986978e+11
43	0x00000000	0.0
44	0x3ca4eb8a	0.020131845
45	0x52294be0	1.8178061e+11
46	0x00000000	0.0
47	0x2d87c7ad	1.5436397e-11
48	0x51e45d35	1.2260204e+11
49	0x35a4bf25	1.2274583e-06
50	0x52285530	1.8074593e+11
51	0x52293c42	1.817151e+11
52	0x5256fcde	2.3084135e+11
53	0x3bbbe75d	0.0057343678
54	0x52534e28	2.2688734e+11
55	0x5254b41c	2.283887e+11
56	0x5211bb61	1.5647849e+11
57	0x00000000	0.0
58	0x525b3acc	2.3539607e+11
59	0x52164275	1.6134001e+11
60	0x5219c524	1.6510937e+11
61	0x00000000	0.0
62	0x524bf90e	2.190142e+11
63	0x525b2442	2.3530154e+11
64	0x52ab02c4	3.672429e+11
65	0x518a3017	7.418904e+10
66	0x00000000	0.0
67	0x528141eb	2.7757835e+11
68	0x00000000	0.0
69	0x52abc2c9	3.6885368e+11
70	0x350a63a7	5.155402e-07
71	0x5292b249	3.1502818e+11
72	0x3409d01c	1.2834829e-07
73	0x52c88415	4.306047e+11
74	0x52c2a096	4.1795892e+11
75	0x419e9b3d	19.8258
76	0x52d13841	4.4929597e+11
77	0x5281cf75	2.7876567e+11
78	0x00000000	0.0
79	0x52a315da	3.5022314e+11
80	0x4526441b	2660.2566
81	0x52d82541	4.6416898e+11
82	0x52bb5db8	4.023656e+11
83	0x52aa6f12	3.6600395e+11
84	0x3cb3afdc	0.021934442
85	0x00000000	0.0
86	0x52a019f2	3.4381503e+11
87	0x00000000	0.0
88	0x39bcd65e	0.0003601787
89	0x00000000	0.0
90	0x00000000	0.0
91	0x52b0e48f	3.798744e+11
92	0x00000000	0.0
93	0x52c4c786	4.2258052e+11
94	0x3282b39b	1.5215667e-08
95	0x52bd92ff	4.071075e+11
96	0x00000000	0.0
97	0x00000000	0.0
98	0x335ded68	5.1671492e-08
99	0x52bc1dda	4.0397734e+11
100	0x528aa7d7	2.977607e+11
101	0x00000000	0.0
102	0x52d3122f	4.532716e+11
103	0x00000000	0.0
104	0x00000000	0.0
105	0x00000000	0.0
106	0x52c7555f	4.280654e+11
107	0x00000000	0.0
108	0x00000000	0.0
109	0x52ac4300	3.6992922e+11
110	0x00000000	0.0
111	0x36eab283	6.994525e-06
112	0x5268158b	2.4919846e+11
113	0x00000000	0.0
114	0x52ab582f	3.6795944e+11
115	0x52ac30bd	3.6977603e+11
116	0x52db0ec3	4.7042275e+11
117	0x311a73a2	2.247568e-09
118	0x52d744d2	4.622863e+11
119	0x52d89ccc	4.6517178e+11
120	0x52943f35	3.183578e+11
121	0x00000000	0.0
122	0x52df1011	4.7902363e+11
123	0x5298b6e9	3.2795188e+11
124	0x529c54d2	3.3571897e+11
125	0x00000000	0.0
126	0x52cfaf5c	4.4600014e+11
127	0x52df3ee7	4.7941652e+11
128	0x523d1a32	2.0304708e+11
129	0x510d59a6	3.7943402e+10
130	0x00000000	0.0
131	0x520eef6a	1.5347551e+11
132	0x00000000	0.0
133	0x523dcd9e	2.0379963e+11
134	0x36f31bf7	7.24522e-06
135	0x52226869	1.743841e+11
136	0x385ce4e1	5.2665247e-05
137	0x525d00bf	2.3730007e+11
138	0x525700eb	2.3085834e+11
139	0x00000000	0.0
140	0x5267c3eb	2.488561e+11
141	0x52112d6a	1.5588304e+11
142	0x00000000	0.0
143	0x5234768d	1.9377077e+11
144	0x4459158c	868.3367
145	0x526ec37a	2.5637044e+11
146	0x524ece36	2.2205573e+11
147	0x523b6f4d	2.0125655e+11
148	0x00000000	0.0
149	0x3bfdbdda	0.0077435793
150	0x52316adf	1.9050055e+11
151	0x00000000	0.0
152	0x00000000	0.0
153	0x00000000	0.0
154	0x00000000	0.0
155	0x5243a856	2.100857e+11
156	0x00000000	0.0
157	0x525861a8	2.3233783e+11
158	0x32114f27	8.458108e-09
159	0x52514fdf	2.2474704e+11
160	0x00000000	0.0
161	0x00000000	0.0
162	0x34bd9fe0	3.5320318e-07
163	0x524f81dc	2.2280923e+11
164	0x521a5b8d	1.6574023e+11
165	0x00000000	0.0
166	0x52681e77	2.4923588e+11
167	0x00000000	0.0
168	0x00000000	0.0
169	0x00000000	0.0
170	0x525a3c68	2.3432908e+11
171	0x00000000	0.0
172	0x00000000	0.0
173	0x523e781e	2.0451475e+11
174	0x00000000	0.0
175	0x30deb727	1.6204681e-09
176	0x5201bc82	1.3930335e+11
177	0x00000000	0.0
178	0x523e134f	2.0409193e+11
179	0x523dedf4	2.0393525e+11
180	0x52711095	2.5884133e+11
181	0x318d5b7c	4.1140407e-09
182	0x526dc77f	2.5531356e+11
183	0x526e16c7	2.5564609e+11
184	0x5223a1c6	1.7569844e+11
185	0x00000000	0.0
186	0x52774511	2.6550392e+11
187	0x522a4ae8	1.8285029e+11
188	0x522dd5a8	1.8665347e+11
189	0x00000000	0.0
190	0x526601c8	2.4696809e+11
191	0x5275a85f	2.6377295e+11
192	0x51cf7987	1.1138714e+11
193	0x50a6aaf7	2.2369778e+10
194	0x00000000	0.0
195	0x519bc44f	8.362668e+10
196	0x00000000	0.0
197	0x51d01487	1.117122e+11
198	0x31169316	2.1911482e-09
199	0x51b13034	9.512724e+10
200	0x00000000	0.0
201	0x51f2a2e1	1.3026434e+11
202	0x51ebed5c	1.2666244e+11
203	0x00000000	0.0
204	0x51feff5f	1.3690076e+11
205	0x519dba5a	8.467954e+10
206	0x00000000	0.0
207	0x51c593b4	1.06073326e+11
208	0x41db8051	27.437654
209	0x52035eeb	1.410583e+11
210	0x51e2f4f5	1.2184654e+11
211	0x51cd75d7	1.10305665e+11
212	0x00000000	0.0
213	0x3b2d3b11	0.0026432911
214	0x51c24a75	1.04309105e+11
215	0x00000000	0.0
216	0x00000000	0.0
217	0x00000000	0.0
218	0x00000000	0.0
219	0x51d6cb18	1.1531629e+11
220	0x00000000	0.0
221	0x51eda47b	1.2758335e+11
222	0x31487f34	2.9176137e-09
223	0x51e5d754	1.23395015e+11
224	0x00000000	0.0
225	0x00000000	0.0
226	0x328f3daf	1.6675441e-08
227	0x51e403cc	1.2241453e+11
228	0x51a83050	9.029563e+10
229	0x00000000	0.0
230	0x51ff7eb0	1.37167766e+11
231	0x00000000	0.0
232	0x00000000	0.0
233	0x00000000	0.0
234	0x51ef86fb	1.2859522e+11
235	0x00000000	0.0
236	0x00000000	0.0
237	0x51d0a72d	1.1201974e+11
238	0x00000000	0.0
239	0x2f094b0b	1.2486738e-10
240	0x518ca348	7.550435e+10
241	0x30cf093c	1.5063857e-09
242	0x51d01aff	1.11725765e+11
243	0x51d046bd	1.118175e+11
244	0x5204ceb0	1.4260083e+11
245	0x30099d6b	5.0064014e-10
246	0x5202cb13	1.404382e+11
247	0x5202fea7	1.4065453e+11
248	0x51b29e9f	9.5895675e+10
249	0x00000000	0.0
250	0x52083cbf	1.4628368e+11
251	0x51ba2009	9.992517e+10
252	0x51bdc37e	1.0187858e+11
253	0x00000000	0.0
254	0x51fccc63	1.357201e+11
255	0x520748f7	1.4526118e+11

exp_avg f4 [5]
0	0x3f7d3839	0.98913914
1	0xc162e13a	-14.179987
2	0x42088e24	34.13881
3	0xc1bc281b	-23.519583
4	0x4256a343	53.659435

exp_avg_sq f4 [5]
0	0x48450142	201733.03
1	0x48cb0754	415802.62
2	0x484d1833	210016.8
3	0x47ec41fa	120963.95
4	0x484e370a	211164.16
