models/no_food/prey_agent.pth (torch, 892260 bytes, 7 tensors)

shared_layers.0.weight f4 [128, 1600]
0.014231268 0.015064604 0.0060175033 -0.020832801 -0.017024975 0.016437976 0.022186035 0.019411407
-0.010284882 -0.015278107 -0.0042169904 0.0010762647 0.037078775 0.014728272 0.029467886 -0.009799411
-0.007868325 0.029669845 0.02732048 0.0074463156 0.03031515 0.030033216 0.03224918 0.018665612
0.01556825 0.009804068 0.004151845 0.002151329 0.010275121 -0.013476293 -0.0012299734 0.017515766
0.022433516 -0.012100354 -0.0136914775 -0.018187245 -0.02178004 -0.011285375 0.011829014 0.0042442875
0.031022899 0.010963272 -0.013315159 -0.042191356 0.004079999 0.019779203 0.0064224163 -0.031156344
0.0118352445 0.02131458 0.0024456615 -0.017092505 -0.0063529746 0.029322846 0.018514378 -0.0029938738
0.0042918394 -0.0027609784 0.0038327968 0.009759332 -0.00595164 -0.01992173 0.012445522 -6.188126e-05
-0.019859888 0.019794809 -0.031412397 -0.0075914613 -0.016512707 -0.003046829 0.0010886852 -0.019671645
-0.02048004 0.012459489 0.0004225663 -0.0274936 -0.013836038 -0.0046912744 -0.014042537 -0.0071838866
0.0031791648 -0.012129138 -0.022664875 -0.018060228 0.005377265 -0.027125016 0.004571893 0.007933721
-0.0014137622 0.014640548 -0.029497724 0.005158992 -0.024841053 -0.018753527 0.01233814 -0.00026913814
-0.034164593 -0.024331667 0.018901916 0.021511713 0.045123734 0.0044518528 0.019453777 0.0054768994
-0.012055033 -0.0043656146 0.013760259 0.015483896 0.0036536297 -0.008408778 0.013788409 -0.02100146
-0.002710304 0.012251064 -0.02042417 -0.016537322 -0.0010430046 0.0039664484 -0.038528033 -0.0163702
-0.02465083 -0.027916929 -0.004465885 -0.039983742 0.01022322 0.009720195 0.0045347153 0.02150387
-0.019031199 -0.020465575 -0.015169947 -0.010197869 -0.027935022 -0.0167119 -0.038111337 0.0075200247
0.0019544645 -0.016982095 0.016382445 -0.02182794 -0.0043127937 0.00094386964 -0.030041238 -0.022955779
-0.003701413 -0.007115488 -0.022051802 -0.035231527 -0.025124827 0.008810597 0.0146206105 0.009900556
-0.008370186 0.0031154444 -0.020677648 -0.016230248 0.018913154 0.010539299 0.0067810244 -0.013063602
-0.002416355 0.0009694325 -0.030941797 -0.01032503 0.0059321136 -0.045080073 -0.0020948271 -0.022322802
-0.008538936 0.00062522525 0.0057232315 -0.028868936 -0.0059424047 -0.012478233 0.007665288 0.018801734
0.011690476 -0.0211567 0.019547965 -0.028127579 -0.0056420807 -0.028125968 -0.002493351 -0.009811407
-0.024346974 -0.021350414 -0.028128425 -0.023736486 -0.008803143 -0.023278836 -0.018145472 -0.033345032
0.010089397 0.009986859 -0.008825175 -0.004854476 -0.031466138 -0.027195008 0.012937308 0.017565541
-0.023835732 -0.0147306835 0.019810723 -0.036680333 -0.027162997 -0.006239354 -0.008185092 -0.027700052
0.010520945 -0.01409242 0.0072582886 -0.011710041 -0.019797225 -0.03396541 0.009958207 -0.020148264
-0.030662647 0.0078187995 0.024966246 0.012435674 0.029332273 -0.026396273 0.012535468 -0.023952613
0.008740616 -0.019463725 0.006332409 -0.00083560724 0.0022826924 0.017887414 0.013754229 0.012865928
-0.02269796 0.008593862 0.0041480972 -0.0095797535 0.01766881 -0.015300425 -0.00636284 0.008308786
-0.0014613204 0.0100540435 0.008375883 -0.012132301 -0.007388987 -0.028027462 -0.015832182 -0.013704267
-0.016478403 -0.012237959 -0.007661972 0.004555981 -0.013957069 -0.027038395 -0.010425098 -0.025181323
00000000: 442a 693c 87d1 763c 7a2e c53b 8da9 aabc
00000010: f677 8bbc efa8 863c 7dbf b53c ac04 9f3c
00000020: ec81 28bc 0651 7abc ae2e 8abb 7311 8d3a
00000030: eadf 173d da4e 713c a366 f13c b58d 20bc
00000040: 26ea 00bc 2d0e f33c 33cf df3c 3900 f43b
00000050: 7a57 f83c 3808 f63c b717 043d a0e8 983c
00000060: f911 7f3c 3ea1 203c 330c 883b 50fd 0c3b
00000070: fb58 283c abcb 5cbc 0f37 a1ba 397d 8f3c
00000080: 7ec6 b73c 9040 46bc 3852 60bc 6bfd 94bc
00000090: 0e6c b2bc 4be6 38bc 7bce 413c aa13 8b3b
000000a0: bc23 fe3c 4c9f 333c d327 5abc d8d0 2cbd
000000b0: 83b1 853b ff07 a23c 2273 d23b 973b ffbc
000000c0: 9de8 413c ea9b ae3c 6447 203b 9505 8cbc
000000d0: 9d2c d0bb 7736 f03c 77ab 973c de34 44bb
000000e0: 8fa2 8c3b 88f1 34bb a92f 7b3b 9be5 1f3c
000000f0: fa05 c3bb e532 a3bc 4de8 4b3c 40c6 81b8
00000100: 34b1 a2bc b928 a23c 49aa 00bd cbc1 f8bb
00000110: a845 87bc 4fad 47bb 37b2 8e3a 6e26 a1bc
00000120: c2c5 a7bc e222 4c3c e48b dd39 423a e1bc
00000130: 8db0 62bc 43b9 99bb ab12 66bc cf66 ebbb
00000140: 8959 503b 4bb9 46bc b0ab b9bc 0bf3 93bc
00000150: c533 b03b 4835 debc d1cf 953b 70fc 013c
00000160: fd4d b9ba e9de 6f3c 36a5 f1bc c30c a93b
00000170: 777f cbbc ffa0 99bc e925 4a3c 1c1b 8db9
00000180: 2cf0 0bbd 3453 c7bc 31d8 9a3c 5539 b03c
00000190: aad3 383d d9e0 913b 875d 9f3c 9077 b33b
000001a0: 7982 45bc 6e0d 8fbb b672 613c 2bb0 7d3c
000001b0: bc71 6f3b f9c4 09bc c7e8 613c 410b acbc
000001c0: 5b9f 31bb b0b8 483c 9750 a7bc 4779 87bc
000001d0: 6db5 88ba fbf8 813b 92cf 1dbd cc1a 86bc
000001e0: 8af0 c9bc 0bb2 e4bc 8f56 92bb fec5 23bd
000001f0: 4b7f 273c 7441 1f3c f397 943b e228 b03c
00000200: 51e7 9bbc 6ca7 a7bc 5f8b 78bc f614 27bc
00000210: fdd7 e4bc 65e7 88bc a21a 1cbd 8a6a f63b
00000220: 7916 003b 091e 8bbc 7a34 863c 82d0 b2bc
00000230: 5652 8dbb 056e 773a 0b19 f6bc c20d bcbc
00000240: 6893 72bb 0a29 e9bb fba5 b4bc ef4e 10bd
00000250: 95d2 cdbc 525a 103c 498b 6f3c f135 223c
00000260: 1b23 09bc 7c2c 4c3b 2c64 a9bc 4cf5 84bc
00000270: c2ef 9a3c 06ad 2c3c 5b33 de3b b808 56bc
00000280: b65b 1ebb 8421 7e3a a779 fdbc 512a 29bc
00000290: 2d62 c23b e2a5 38bd 5e49 09bb 4fde b6bc
000002a0: e5e6 0bbc 28e6 233a f289 bb3b 8c7e ecbc
000002b0: 81b8 c2bb 8171 4cbc 192d fb3b 1806 9a3c
000002c0: 6989 3f3c d150 adbc 0e23 a03c cf6b e6bc
000002d0: 34e1 b8bb 6e68 e6bc 7d67 23bb 06c0 20bc
000002e0: 4e73 c7bc 10e7 aebc 956d e6bc 0573 c2bc
000002f0: 0f3b 10bc 42b3 bebc d0a5 94bc cd94 08bd
00000300: 004e 253c ec9f 233c 7897 10bc 4c12 9fbb
00000310: a3e2 00bd 11c8 debc 01f7 533c 9ce5 8f3c
00000320: 2743 c3bc f758 71bc 194a a23c 1e3e 16bd
00000330: ef84 debc 7f73 ccbb c41a 06bc 38eb e2bc
00000340: 0b60 2c3c e5e3 66bc f0d6 ed3b 79db 3fbc
00000350: ca2d a2bc 501f 0bbd bf27 233c f90d a5bc
00000360: 3b30 fbbc 6c1a 003c 0386 cc3c ffbe 4b3c
00000370: 3c4a f03c ff3c d8bc 9061 4d3c 4538 c4bc
00000380: cd34 0f3c 6472 9fbc 1980 cf3b a70c 5bba
00000390: 3999 153b a088 923c 6b59 613c 9dcb 523c
000003a0: 12f1 b9bc 45cd 0c3c c3ec 873b 66f4 1cbc
000003b0: 2ebe 903c a2ae 7abc 5f7f d0bb 9321 083c
000003c0: c789 bfba b7b9 243c 003b 093c 8fc6 46bc
000003d0: 511f f2bb d999 e5bc 7eb2 81bc dd87 60bc
000003e0: b7fd 86bc b881 48bc 4811 fbbb 574a 953b
000003f0: 31ac 64bc a07f ddbc 08ce 2abc 1049 cebc

shared_layers.0.bias f4 [128]
0.019326886 0.011685851 0.032666557 0.017934026 -0.0057285596 -0.016769212 0.017843904 -0.015140079
0.010472204 0.0019581 0.030588156 0.0025105423 0.007470113 0.024143705 0.0025608847 -0.011340517
0.017755585 0.0276844 -0.008783599 0.021024369 0.002224657 0.019244894 0.024209496 0.014398289
-0.004630957 0.02770752 0.008516453 0.012797318 0.01972675 0.024550727 0.018975507 0.012981201
-0.00905691 0.032928713 -0.001076079 0.014036735 -0.008595096 0.020473965 0.012880942 0.030440023
0.01044301 0.031358704 0.015941318 -0.015960956 0.036677815 0.02344617 0.03798379 0.024122708
-0.004140143 0.015547114 -0.01308678 -0.0045434614 -0.0142781 0.014973082 -0.0038154998 0.00477973
0.03288517 0.08321491 -0.018824888 -0.019611817 -0.029184142 0.0030908627 0.03437812 0.0036957546
0.023243507 0.00013708955 0.017541565 -0.011945496 0.014382722 0.00042840073 0.01933829 0.017433692
0.0112332655 -0.00070240133 0.001238344 0.006807919 -0.021116545 -0.0052472493 0.007607031 0.018620789
0.0011210867 0.03904829 -0.0010017253 0.003581519 -0.024903333 0.03606427 0.036735795 0.012413686
-0.025099305 0.011872666 -0.0025387295 0.030653149 0.013008367 0.024707481 -0.045479998 0.027665878
-0.007867667 0.019915778 0.016515257 -0.0016538993 0.005449094 0.031401895 -0.020541422 0.053386483
0.013178403 -0.0222892 -0.013138354 0.01083282 -0.016784944 0.061658923 -0.013567547 0.08471845
0.0036549775 -0.0036951841 0.011270467 0.030032651 -0.03228244 0.021919388 0.0210989 0.03051416
0.029024549 0.042591814 0.008101072 0.013094334 0.038627047 0.025766462 0.019820025 -0.008331965
00000000: 6b53 9e3c 0376 3f3c 5ecd 053d 61ea 923c
00000010: a4b6 bbbb 965f 89bc 612d 923c 180e 78bc
00000020: 9b93 2b3c 7753 003b 0394 fa3c e987 243b
00000030: dac7 f43b 05c9 c53c 84d4 273b 93cd 39bc
00000040: 2974 913c 65ca e23c 16e9 0fbc 4c3b ac3c
00000050: 8dcb 113b 78a7 9d3c fe52 c63c cde6 6b3c
00000060: 48bf 97bb e2fa e23c 9888 0b3c d8ab 513c
00000070: fe99 a13c 9b1e c93c 8672 9b3c 1aaf 543c
00000080: 6f63 14bc 42e0 063d 380b 8dba 55fa 653c
00000090: 72d2 0cbc 04b9 a73c 960a 533c 5b5d f93c
000000a0: 2919 2b3c fc71 003d 5e97 823c 8dc0 82bc
000000b0: 7a3b 163d 2f12 c03c e494 1b3d fc9c c53c
000000c0: 09aa 87bb 53b9 7e3c ef69 56bc 51e1 94bb
000000d0: b1ee 69bc a851 753c 770d 7abb 489f 9c3b
000000e0: 9ab2 063d 946c aa3d a736 9abc f6a8 a0bc
000000f0: 9513 efbc 1290 4a3b 12d0 0c3d 7934 723b
00000100: 2b69 be3c b2bf 0f39 54b3 8f3c 0bb7 43bc
00000110: 82a5 6b3c f99a e039 556b 9e3c 1ad1 8e3c
00000120: bb0b 383c 5b21 38ba ee4f a23a f714 df3b
00000130: 9bfc acbc 1ef1 abbb 6744 f93b a08a 983c
00000140: 6df1 923a 1af1 1f3d 534c 83ba ebb7 6a3b
00000150: 1302 ccbc 21b8 133d 4678 163d c662 4b3c
00000160: 0f9d cdbc 9285 423c d060 26bb 501c fb3c
00000170: 0c21 553c 5867 ca3c 3c49 3abd 8da3 e23c
00000180: 63e7 00bc 6a26 a33c 014b 873c a7c7 d8ba
00000190: 508e b23b 469f 003d 7c46 a8bc c9ab 5a3d
000001a0: 3aea 573c d797 b6bc 4042 57bc 247c 313c
000001b0: 9480 89bc 118e 7c3d 6b4a 5ebc de80 ad3d
000001c0: 5988 6f3b e72a 72bb c4a7 383c 0907 f63c
000001d0: 983a 04bd 4a90 b33c 9ad7 ac3c d5f8 f93c
000001e0: e4c4 ed3c c174 2e3d 5cba 043c 9e89 563c
000001f0: 6537 1e3d 3014 d33c 9b5d a23c cb82 08bc

shared_layers.2.weight f4 [128, 128]
0.09164623 0.09328588 -0.047786854 0.08022568 0.057537172 0.071029395 0.064273335 0.06853583
-0.009547965 -0.053646717 -0.11251006 0.008852131 0.030391296 -0.0013244357 0.026804447 0.03015209
0.06920709 -0.05355452 -0.052780375 0.053490803 0.073126726 0.09694745 -0.03279263 -0.010501987
0.08699931 0.07045748 0.12859459 0.020639498 0.013488626 -0.06318716 0.008978886 -0.014431366
-0.047258686 -0.016668422 -0.022925364 0.0076125585 -0.04078925 0.10665674 -0.013463057 0.07952438
0.09991898 0.046735317 0.035291646 -0.0022390012 0.03455739 0.09294884 -0.055098128 0.05637079
-0.0075796675 -0.015485739 -0.040335212 0.0043291473 -0.06763838 -0.014781647 -0.018575097 0.09442857
0.006251656 0.094522186 0.06920393 0.077356204 0.089167595 -0.030998558 -0.03335328 -0.0534714
-0.08176624 0.09787456 -0.015936447 -0.08469701 0.08853398 0.05897601 0.08813343 0.06813043
-0.060033884 0.09683204 -0.028780153 -0.09438623 0.110665455 0.0066921697 -0.02667431 0.030797414
-0.014810374 0.071044184 0.07401322 -0.07403882 0.046857495 0.005622761 0.040256515 -0.013379982
0.0914377 0.01686323 0.047421277 0.051067725 -0.03711132 -0.0063470616 0.039538372 -0.039135415
0.07761887 -0.0066908025 -0.020733858 0.119300425 -0.07127739 0.027394688 -0.06680133 -0.004789308
-0.05184769 0.10174658 -0.008704833 -0.030486567 -0.08923679 0.050942693 0.061271448 0.037945773
-0.03514375 0.0677587 0.024942953 0.055918723 0.014776502 -0.012376435 -0.019389482 0.016236883
-0.011396657 -0.0026546766 0.04796649 0.010753671 0.03900378 0.095385134 -0.033540677 0.024767388
0.07209932 0.034933403 -0.10697042 0.06968014 0.028197862 0.005153936 0.0654279 -0.058216285
-0.03293999 0.013792471 0.035284914 0.02331721 0.041953433 0.09311732 0.03613061 0.011129598
0.088198505 -0.032291595 -0.026641136 0.043872967 0.009824755 0.032885555 -0.0561128 -0.003063515
-0.028655048 0.057082567 -0.071885675 0.040539365 0.024804965 0.0028253375 0.022756318 0.09231922
-0.023931224 0.08424225 0.06150046 -0.058288045 0.031111276 -0.085691944 0.01588035 0.10588203
-0.013592475 0.045648534 -0.07550904 -0.022118114 0.08073209 0.02046562 0.093937635 0.019343492
0.0918067 0.12518704 0.09043061 0.011910232 0.008204906 -0.008896857 0.074246876 0.109538995
-0.004493795 0.06893273 0.0236139 0.068849646 -0.043791626 -0.030149795 -0.03975163 -0.07639504
0.014624191 0.032469407 -0.019913457 -0.084512115 0.07874543 0.013781692 -0.042459887 0.065917276
0.03993448 0.04897471 -0.07903159 -0.04246018 -0.0488608 0.06333612 0.0076374714 0.0371502
-0.011743057 0.02689157 -0.011364575 -0.042880207 0.06609642 -0.060066294 0.020190837 -0.009836092
0.02432632 0.0012512532 0.05114639 0.08313173 -0.07530503 0.042175524 0.04681254 0.047427915
-0.028466212 0.08797143 0.02144292 -0.013456741 0.027258633 0.10863092 -0.038727935 0.047195055
0.08479623 -0.039993145 0.016880302 -0.05307746 -0.008118558 0.13020852 -0.04124985 -0.008904827
-0.0765792 0.012352226 0.082146384 -0.02836914 -0.0030771203 0.05553913 0.05245869 0.031232532
-0.007247426 0.012827361 -0.08046992 -0.036732744 -0.011200327 -0.0051568854 0.007870089 0.00794642
00000000: 05b1 bb3d ab0c bf3d 26bc 43bd 5c4d a43d
00000010: 19ac 6b3d dc77 913d bda1 833d 835c 8c3d
00000020: 116f 1cbc a9bc 5bbd ad6b e6bd 8708 113c
00000030: 2bf7 f83c b098 adba 0095 db3c 8401 f73c
00000040: 72bc 8d3d fc5b 5bbd 3c30 58bd 2c19 5b3d
00000050: 77c3 953d 628c c63d 9151 06bd 8710 2cbc
00000060: b22c b23d 034c 903d 4dae 033e 2a14 a93c
00000070: 66ff 5c3c 4568 81bd 2d1c 133c 8971 6cbc
00000080: 5392 41bd 378c 88bc f9cd bbbc c572 f93b
00000090: a112 27bd d96e da3d 2794 5cbc aedd a23d
000000a0: 52a2 cc3d 886d 3f3d f98d 103d 35bc 12bb
000000b0: 0d8c 0d3d f65b be3d 93ae 61bd 0fe5 663d
000000c0: dc5e f8bb e6b7 7dbc 8936 25bd 85db 8d3b
000000d0: fe85 8abd b92e 72bc cd2a 98bc c463 c13d
000000e0: b1da cc3b d994 c13d caba 8d3d ee6c 9e3d
000000f0: 809d b63d b0f0 fdbc 739d 08bd d404 5bbd
00000100: 0f75 a7bd 7572 c83d 278d 82bc a075 adbd
00000110: 4e51 b53d d490 713d 4d7f b43d f887 8b3d
00000120: 17e6 75bd e04f c63d 5bc4 ebbc 914d c1bd
00000130: 92a4 e23d fd49 db3b 1584 dabc dc4a fc3c
00000140: 36a7 72bc 9d7f 913d 3e94 973d aaa1 97bd
00000150: a5ed 3f3d 233f b83b 04e4 243d b637 5bbc
00000160: b043 bb3d c224 8a3c d03c 423d 642c 513d
00000170: 0a02 18bd 03fb cfbb fdf2 213d 754c 20bd
00000180: a4f6 9e3d 853e dbbb 0dda a9bc c853 f43d
00000190: e1f9 91bd d36a e03c 23cf 88bd a1ef 9cbb
000001a0: 3e5e 54bd 8360 d03d b79e 0ebc f7be f9bc
000001b0: c7c1 b6bd 49a9 503d c5f7 7a3d 076d 1b3d
000001c0: e5f2 0fbd 13c5 8a3d 2a55 cc3c 080b 653d
000001d0: 2419 723c 88c6 4abc b1d6 9ebc 3603 853c
000001e0: 0bb9 3abc 15fa 2dbb 8378 443d 2a30 303c
000001f0: 6dc2 1f3d 4859 c33d f361 09bd fae4 ca3c
00000200: cfa8 933d 5416 0f3d 4f13 dbbd 76b4 8e3d
00000210: 34ff e63c 59e2 a83b 10ff 853d 3374 6ebd
00000220: 15ec 06bd d1f9 613c ea86 103d bc03 bf3c
00000230: 5dd7 2b3d 4bb4 be3d b1fd 133d eb58 363c
00000240: 6ba1 b43d 3144 04bd 833e dabc 24b4 333d
00000250: 02f8 203c 01b3 063d 89d6 65bd 41c5 48bb
00000260: febd eabc 69cf 693d cc38 93bd 9b0c 263d
00000270: c833 cb3c 4c29 393b 756b ba3c dc11 bd3d
00000280: 6a0b c4bc 3387 ac3d e8e7 7b3d 72bf 6ebd
00000290: 13dd fe3c 427f afbd 8217 823c aed8 d83d
000002a0: f9b2 5ebc f5f9 3a3d 7ca4 9abd 0c31 b5bc
000002b0: de56 a53d 84a7 a73c 6062 c03d 3e76 9e3c
000002c0: 2705 bc3d 0831 003e af33 b93d 2223 433c
000002d0: df6d 063c 1fc4 11bc bf0e 983d fb55 e03d
000002e0: af40 93bb 9a2c 8d3d f071 c13c 0b01 8d3d
000002f0: d95e 33bd b4fc f6bc 9bd2 22bd 0175 9cbd
00000300: 4e9a 6f3c a4fe 043d 8c21 a3bc b014 adbd
00000310: 4945 a13d 9bcc 613c 6bea 2dbd a3ff 863d
00000320: 5692 233d b599 483d 50db a1bd baea 2dbd
00000330: 4322 48bd 5eb6 813d c143 fa3b cf2a 183d
00000340: f365 40bc b64b dc3c 7b32 3abc 28a3 2fbd
00000350: 8f5d 873d 1308 76bd 4167 a53c 8f27 21bc
00000360: fe47 c73c 1701 a43a e17e 513d f840 aa3d
00000370: 8639 9abd 3ec0 2c3d 82be 3f3d c643 423d
00000380: f931 e9bc 5d2a b43d 10a9 af3c aa79 5cbc
00000390: 7f4d df3c e379 de3d 2fa1 1ebd 9a4f 413d
000003a0: a5a9 ad3d dacf 23bd 8f48 8a3c c067 59bd
000003b0: b303 05bc 6255 053e 9af5 28bd 8de5 11bc
000003c0: 8ed5 9cbd fe60 4a3c 5d3c a83d 6666 e8bc
000003d0: 83a9 49bb 007d 633d ecde 563d 5edb ff3c
000003e0: d17b edbb da29 523c 6acd a4bd 1375 16bd
000003f0: 9481 37bc 17fb a8bb 8cf1 003c b431 023c

shared_layers.2.bias f4 [128]
-0.002727915 0.04262622 0.05242022 0.0738208 0.022150332 -0.029341605 -0.04170662 0.011337805
0.044373326 0.08181195 -0.055064954 0.05459579 0.09255708 -0.00979791 0.036514793 0.040917862
0.056977455 0.06896724 0.059549302 0.0066867513 0.05087419 -0.0021491207 -0.07024655 0.02293035
-0.029747214 -0.03627624 -0.025176482 -0.066942506 0.08085728 -0.079983726 -0.026870176 -0.06644136
0.03927223 0.06848834 0.0953755 0.09987639 0.076346904 -0.0433766 -0.068030365 0.059435643
-0.014559442 -0.075328745 -0.002359536 0.044746514 0.06912371 -0.067658804 0.058563415 0.048200615
0.04890032 -0.082953714 -0.07687075 -0.020330586 0.060903322 0.046355493 -0.058334652 0.054638166
0.058218267 0.08277762 -0.033813994 0.10282596 0.054553375 0.024633076 0.016007334 -0.044310942
0.01491284 0.032647267 0.037832357 -0.0842708 -0.015033452 -0.06819953 0.06428512 0.090039745
0.062450975 -0.04631106 -0.07300186 -0.07238776 -0.051675923 -0.02462593 -0.016367808 -0.05118727
0.057950698 0.010998167 -0.056150585 -0.0058182725 0.046371248 -0.03425479 -0.030776171 -0.04270622
0.05285496 -0.07100705 0.071662724 0.07611653 0.067763686 0.06568827 0.017410198 0.08446548
-0.03718282 -0.047212552 -0.032564346 0.044364545 -0.03499592 -0.0676262 0.037315574 -0.06578591
0.041487616 -0.06082284 0.064719066 0.035037175 0.059358343 0.019846642 -0.033724416 0.031244205
0.06813822 -0.00837061 0.082200035 0.058667988 -0.027816202 0.058312006 0.095537186 0.043948874
0.08752292 0.016760748 0.00731637 0.06938133 -0.025446579 0.07451107 0.06366192 0.025414903
00000000: d2c6 32bb d598 2e3d 96b6 563d 5c2f 973d
00000010: 9d74 b53c ce5d f0bc 90d4 2abd 33c2 393c
00000020: cec0 353d 068d a73d ca8b 61bd d69f 5f3d
00000030: 918e bd3d 6a87 20bc 8990 153d 7d99 273d
00000040: 3161 693d b23e 8d3d f8e9 733d 891c db3b
00000050: 7461 503d 43d8 0cbb 6cdd 8fbd 6ed8 bb3c
00000060: 6eb0 f3bc 6596 14bd e93e cebc 2719 89bd
00000070: 8098 a53d 82ce a3bd d81e dcbc 6812 88bd
00000080: ebdb 203d 9d43 8c3d 3b54 c33d fe8b cc3d
00000090: c45b 9c3d a9ab 31bd 8153 8bbd ca72 733d
000000a0: ba8a 6ebc f545 9abd 72a2 1abb 1f48 373d
000000b0: bb90 8d3d b390 8abd 31e0 6f3d 026e 453d
000000c0: b44b 483d a3e3 a9bd 696e 9dbd 548c a6bc
000000d0: c375 793d 42df 3d3d 51f0 6ebd 45cc 5f3d
000000e0: 4776 6e3d 5087 a93d 8b80 0abd 6b96 d23d
000000f0: 5c73 5f3d 4ecb c93c d021 833c 647f 35bd
00000100: fc54 743c 24b9 053d 1af6 1a3d 2b96 acbd
00000110: de4e 76bc 32ac 8bbd eba7 833d c266 b83d
00000120: 98cc 7f3d abb0 3dbd 0082 95bd 0940 94bd
00000130: 22aa 53bd 51bc c9bc c815 86bc bea9 51bd
00000140: b65d 6d3d a831 343c 28fe 65bd 35a7 bebb
00000150: c7ef 3d3d c04e 0cbd 4f1e fcbc b8ec 2ebd
00000160: 717e 583d 256c 91bd e8c3 923d fce2 9b3d
00000170: b0c7 8a3d 9287 863d d59f 8e3c 3dfc ac3d
00000180: 034d 18bd f361 41bd 3162 05bd 99b7 353d
00000190: e257 0fbd 9b7f 8abd 37d8 183d c3ba 86bd
000001a0: ebee 293d 5f21 79bd 6e8b 843d 2483 0f3d
000001b0: bc21 733d 6d95 a23c 9d22 0abd d9f3 ff3c
000001c0: 0d8c 8b3d e224 09bc 7e58 a83d d84d 703d
000001d0: cede e3bc 92d8 6e3d 00a9 c33d bc03 343d
000001e0: 373f b33d d64d 893c 29be ef3b cc17 8e3d
000001f0: 5875 d0bc 4399 983d 2e61 823d ea32 d03c

actor.weight f4 [5, 128]
-0.012695131 -0.0377511 -0.02470656 0.08210867 -0.057840213 0.017672895 -0.037116967 -0.014267306
0.06250045 0.10367974 0.017782858 -0.09393309 0.022598663 0.037101552 -0.047093514 0.051103976
0.0059468085 0.060057946 -0.02184522 0.003526877 -0.06086198 0.05054085 -0.024150036 -0.014170721
-0.049231086 0.045767173 -0.036519405 0.030939832 0.060202412 -0.0005603196 -0.061919823 -0.06437971
-0.044711273 -0.05712204 0.041472774 -0.009630536 -0.060845766 0.0773409 0.042796332 0.09307564
0.026072627 -0.037147067 0.025719434 -0.04611049 0.04348758 -0.08286458 -0.056390163 0.07779862
-0.02786283 -0.027214719 -0.0815547 -0.04542926 -0.01864382 0.023855533 0.045480136 0.052892495
0.010522671 -0.02820775 0.0016833176 0.020446992 0.010316555 0.08349182 -0.028999813 -0.07563025
0.10971856 -0.017658386 0.028702158 0.013333552 -0.010318803 0.053633835 0.014963834 0.046026185
0.011267493 0.050167322 0.114061736 0.018123783 -0.042369846 -0.06271027 -0.011057577 0.0042815953
0.024879074 0.015770389 -0.02761701 -0.0025430233 0.085182495 -0.046868533 -0.036874484 -0.03069202
-0.059494622 0.02613998 0.0067211166 -0.056224782 -0.008324191 0.019482614 -0.0041466574 0.015847705
0.07202577 0.001415269 -0.018697955 -0.012067264 0.042294223 0.007295261 0.04880221 0.055671148
0.03584402 0.006711539 -0.000939702 -0.022171445 0.042428 0.092971325 -0.09163798 0.011847701
0.052680913 0.081895016 0.009483927 -0.018214414 0.05476327 -0.007160303 0.059939448 -0.02794492
0.098306425 0.08226179 0.000634367 0.022315532 0.0571224 -0.02760884 -0.018484805 0.067735896
0.03886844 -0.030091893 -0.038113415 0.03158238 -0.078439206 -0.08691039 -0.04111601 -0.04512734
0.08791388 -0.051220495 -0.02708481 0.031575844 0.034834813 -0.08398653 0.04082984 0.011032498
-0.062690504 0.018381063 -0.05926182 0.025717828 0.07260692 -0.031052837 0.0010277866 -0.045108292
-0.043333773 0.08490024 0.032094095 -0.041561935 -0.07004284 -0.027782174 -0.028667957 0.07612502
0.07398627 -0.027119966 -0.03229921 0.09368592 -0.05773432 0.020553257 0.07974829 0.07121753
-0.058510635 -0.092397556 0.01021223 -0.03878166 0.012257887 -0.040156167 -0.061649486 0.030274784
-0.05967457 0.0039117103 0.06278099 -0.057273656 0.008303955 0.030314144 0.07428352 0.09279463
0.08494399 0.08719489 0.07041207 0.034813154 -0.017114053 -0.04985421 -0.037857685 0.0678586
0.021915661 0.092297584 0.04448223 0.028185934 -0.06240477 0.07777542 0.060827736 -0.009301584
0.059001226 0.045829352 -0.0063565634 -0.111116625 -0.07045541 0.050474964 0.059065513 -0.06872363
-0.023361534 -0.0501155 0.049681388 -0.081386134 -0.047939535 0.020612624 -0.087243065 0.05451613
-0.071957715 -0.00241257 0.0004061272 0.07272065 0.03918046 0.008275195 0.07851357 0.051361676
0.08020141 0.054999802 0.023791224 0.050573833 -0.07707439 0.06401337 0.0906569 -0.068011105
0.10036488 0.017127354 -0.045686956 0.07102843 0.060923804 -0.039380085 0.08695118 -0.040172588
0.037469227 -0.04137608 -0.036170937 -0.07331036 0.02790606 0.086998604 -0.057743903 -0.055584013
-0.07549859 -0.011038488 -0.09204456 -0.013834725 -0.030512111 -0.077213846 0.092474245 0.016944263
00000000: 3dff 4fbc e6a0 1abd 6965 cabc 9728 a83d
00000010: dce9 6cbd bfc6 903c f607 18bd 6bc1 69bc
00000020: 3c00 803d 0b56 d43d 5bad 913c fe5f c0bd
00000030: d520 b93c ccf7 173d 21e5 40bd 6752 513d
00000040: 72dd c23b 52ff 753d bff4 b2bc 2d23 673b
00000050: 694a 79bd ec03 4f3d 4cd6 c5bc 502c 68bc
00000060: 89a6 49bd 5c76 3b3d 5f95 15bd 8875 fd3c
00000070: ce96 763d 69e2 12ba a49f 7dbd 82d9 83bd
00000080: 2b23 37bd cdf8 69bd 5bdf 293d 65c9 1dbc
00000090: 6939 79bd e864 9e3d 354b 2f3d 719e be3d
000000a0: 4396 d53c 8627 18bd 90b1 d23c 5ade 3cbd
000000b0: 0820 323d e8b4 a9bd 5ff9 66bd e254 9f3d
000000c0: 9740 e4bc 67f1 debc 2706 a7bd 0814 3abd
000000d0: edba 98bc ae6c c33c 6149 3a3d cda5 583d
000000e0: 4867 2c3c f013 e7bc c4a2 dc3a 7380 a73c
000000f0: c506 293c c2fd aa3d 0491 edbc 08e4 9abd
00000100: 20b4 e03d 52a8 90bc ca20 eb3c f874 5a3c
00000110: 3210 29bc 27af 5b3d de2a 753c f485 3c3d
00000120: 4a9b 383c 407c 4d3d 3399 e93d 5478 943c
00000130: 018c 2dbd 3e6e 80bd d72a 35bc a04c 8c3b
00000140: 33cf cb3c e730 813c 113d e2bc daa8 26bb
00000150: 2974 ae3d 38f9 3fbd b309 17bd d56d fbbc
00000160: a2b0 73bd 8323 d63c d03c dc3b f54b 66bd
00000170: 3062 08bc 019a 9f3c afe0 87bb 0cd3 813c
00000180: 3f82 933d 8c80 b93a 742c 99bc c6b5 45bc
00000190: b53c 2d3d 160d ef3b d3e4 473d 6e07 643d
000001a0: 2ed1 123d 78ec db3b 5556 76ba e4a0 b5bc
000001b0: fcc8 2d3d c067 be3d b1ac bbbd dc1c 423c
000001c0: f1c7 573d 93b8 a73d 7962 1b3c 6536 95bc
000001d0: 734f 603d faa0 eabb 1183 753d bfec e4bc
000001e0: e154 c93d df78 a83d a64b 263a 10cf b63c
000001f0: 2df9 693d ef2b e2bc 726d 97bc 1eb9 8a3d
00000200: 8334 1f3d 4683 f6bc d01c 1cbd 875c 013d
00000210: bca4 a0bd 13fe b1bd 4369 28bd 72d7 38bd
00000220: 310c b43d 95cc 51bd f7e0 ddbc ac55 013d
00000230: f3ae 0e3d 2101 acbd 313d 273d a7c1 343c
00000240: e163 80bd e293 963c 86bc 72bd 32ae d23c
00000250: f0b2 943d 8562 febc ccb6 863a 79c3 38bd
00000260: c17e 31bd 2de0 ad3d 1975 033d d93c 2abd
00000270: 9f72 8fbd 7197 e3bc 10d9 eabc 6fe7 9b3d
00000280: 1d86 973d b12a debc 2d4c 04bd 67de bf3d
00000290: d37a 6cbd 4e5f a83c 1253 a33d 7fda 913d
000002a0: d9a8 6fbd ee3a bdbd 3251 273c 85d9 1ebd
000002b0: 4ed5 483c cb7a 24bd 2c84 7cbd d302 f83c
000002c0: 526d 74bd ce2d 803b 5293 803d c897 6abd
000002d0: 500d 083c 5e55 f83c f521 983d 1c0b be3d
000002e0: 1df7 ad3d 3c93 b23d 3434 903d 3d98 0e3d
000002f0: c532 8cbc ee33 4cbd a910 1bbd 73f9 8a3d
00000300: 7988 b33c 8406 bd3d 0033 363d 30e6 e63c
00000310: 259c 7fbd b848 9f3d 8126 793d ac65 18bc
00000320: 45ab 713d 8fb7 3b3d b84a d0bb 1d91 e3bd
00000330: ed4a 90bd d6be 4e3d aeee 713d f9be 8cbd
00000340: b060 bfbc e945 4dbd b67e 4b3d c6ad a6bd
00000350: 3f5c 44bd cedb a83c 7eac b2bd 4e4c 5f3d
00000360: 915e 93bd 351c 1ebb 78ed d439 90ee 943d
00000370: b17b 203d af94 073c b9cb a03d 9f60 523d
00000380: a340 a43d 7947 613d d0e5 c23c 8226 4f3d
00000390: 2ed9 9dbd 7119 833d 53aa b93d 6849 8bbd
000003a0: 1a8c cd3d aa4e 8c3c 3f22 3bbd 5a77 913d
000003b0: 3d8b 793d 034d 21bd 7613 b23d 038c 24bd
000003c0: 5579 193d f779 29bd fa27 14bd be23 96bd
000003d0: 409b e43c 532c b23d df84 6cbd 10ac 63bd
000003e0: 019f 9abd c6da 34bc dc81 bcbd 0bab 62bc
000003f0: 89f4 f9bc 4b22 9ebd 2363 bd3d b2ce 8a3c

actor.bias f4 [5]
-0.043277096 -0.007656383 -0.010321438 -0.08247996 -0.032393023
00000000: 5343 31bd 65e2 fabb 401b 29bc 41eb a8bd
00000010: 8cae 04bd

critic.weight f4 [1, 128]
0.05949307 0.056346342 -0.08741364 -0.0791175 0.041717265 -0.009430238 0.019586748 0.08034129
-0.06583674 0.014960031 -0.04758996 -0.08800088 0.0577452 0.073798686 0.102147125 0.083123885
0.0568189 0.043152455 0.10101494 0.06989543 -0.0863197 0.036361333 -0.06885376 -0.09498608
-0.013720999 -0.042174786 0.03834085 0.05135122 0.09627893 -0.08289943 0.020631826 -0.056208983
0.061484165 -0.032297064 -0.089601 0.00688791 -0.054825198 0.0008326139 -0.07731102 0.010364948
-0.09716861 0.03505514 -0.05298206 0.036043115 -0.062487014 0.027688274 0.06801694 0.038079336
0.07528274 -0.043324437 0.082778856 -0.07748155 -0.06318536 0.09857416 0.057971958 0.012968778
0.010477385 0.024356414 -0.04400569 -0.041843347 -0.08099537 -0.07504641 0.075081505 0.07550636
-0.02865131 0.05898506 0.097242236 -0.0020850613 0.05944716 0.03130988 0.085874364 0.07639888
-0.0051636808 -0.010695958 -0.0618705 0.01766714 0.022323765 0.07077356 0.10910616 0.033638913
0.039742433 -0.099914484 0.017757766 0.06483897 -0.024149701 0.07983088 -0.05342819 0.07068812
-0.061191868 0.0121150585 0.02870752 -0.048875246 -0.09561298 0.019832363 0.061450984 -0.077369586
-0.014723724 -0.060211495 -0.074879244 0.06701021 0.012303049 0.03886873 0.12051083 0.039812103
0.09201448 0.008976862 -0.08604353 -0.04077968 -0.102889135 -0.055951014 -0.044866 -0.07899101
0.02983637 -0.02692776 -0.0640997 -0.036610756 0.023807323 -0.020315249 -0.10302879 0.03104324
0.086406656 0.08716593 0.08833624 -0.07540485 0.058956902 0.08668871 -0.013122086 -0.08008909
00000000: 01af 733d 6ccb 663d ec05 b3bd 5b08 a2bd
00000010: b9df 2a3d 4981 1abc 6374 a03c f989 a43d
00000020: 6ad5 86bd eb1a 753c b1ed 42bd ce39 b4bd
00000030: 3b86 6c3d c423 973d 8332 d13d db3c aa3d
00000040: efba 683d a1c0 303d ece0 ce3d 5625 8f3d
00000050: 62c8 b0bd 9fef 143d 3303 8dbd 1088 c2bd
00000060: 0ace 60bc 78bf 2cbd 4c0b 1d3d a855 523d
00000070: e32d c53d 2dc7 a9bd 1304 a93c 643b 66bd
00000080: d2d6 7b3d ed49 04bd bb80 b7bd fab3 e13b
00000090: 6390 60bd c643 5a3a 3d55 9ebd bed1 293c
000000a0: 5600 c7bd fa95 0f3d b703 59bd f2a1 133d
000000b0: 62f2 7fbd 85d2 e23c 774c 8b3d 14f9 1b3d
000000c0: d62d 9a3d f774 31bd f687 a93d a6ae 9ebd
000000d0: 5367 81bd 40e1 c93d 0174 6d3d ff7a 543c
000000e0: 56a9 2b3c 1a87 c73c 4f3f 34bd ee63 2bbd
000000f0: e7e0 a5bd efb1 99bd 55c4 993d 14a3 9a3d
00000100: 27b6 eabc 519a 713d f026 c73d 86a5 08bb
00000110: de7e 733d ca3e 003d e6de af3d 0477 9c3d
00000120: 1834 a9bb 193e 2fbc ec6b 7dbd aeba 903c
00000130: 54e0 b63c baf1 903d 0d73 df3d f5c8 093d
00000140: f6c8 223d f79f ccbd bc78 913c 4bca 843d
00000150: 98d5 c5bc 5f7e a33d 85d7 5abd efc4 903d
00000160: 53a4 7abd 3d7e 463c 082c eb3c 6931 48bd
00000170: bdd0 c3bd 7b77 a23c 07b4 7b3d f273 9ebd
00000180: c63b 71bc 54a0 76bd 4a5a 99bd a63c 893d
00000190: ba92 493c d134 1f3d 62ce f63d 0412 233d
000001a0: 1672 bc3d b013 133c 9737 b0bd 9808 27bd
000001b0: 8ab7 d2bd e42c 65bd 69c5 37bd 0ac6 a1bd
000001c0: 676b f43c 9b97 dcbc b446 83bd 29f5 15bd
000001d0: 9307 c33c 2a6c a6bc c200 d3bd 654e fe3c
000001e0: f9f5 b03d 0d84 b23d a1e9 b43d dc6d 9abd
000001f0: cb7c 713d da89 b13d 05fe 56bc c005 a4bd
